mnist_nets/fc1.pt (torch_old, 318940 bytes, 4 tensors)

layers.2.weight f4 [100, 784]
2.1950957e-05 6.945554e-06 1.372468e-05 2.2196973e-05 7.15122e-07 3.360446e-05 4.353732e-05 3.5930473e-06
3.0932377e-05 7.893428e-06 1.4031935e-05 8.984285e-06 1.1883103e-05 2.2828715e-05 3.0133366e-05 1.5021053e-05
1.12018815e-05 3.1215048e-05 2.1800814e-05 2.6068275e-05 1.9990453e-05 -1.0646967e-06 2.8874074e-06 6.4005876e-06
1.7562586e-05 2.2471611e-05 3.3202505e-05 1.3710048e-05 1.39356725e-05 2.6635478e-05 2.2206923e-05 1.3561188e-05
1.8297465e-05 2.4152392e-05 1.4947469e-05 1.1941508e-05 2.5131394e-06 2.6023281e-05 8.414463e-06 2.3209375e-05
1.9242018e-05 1.6437132e-05 7.6214004e-05 4.591351e-05 -1.9516747e-05 4.3093292e-05 2.0123347e-05 2.3026134e-05
8.623481e-06 5.5152894e-05 2.8010289e-05 1.2147037e-06 6.2169092e-06 9.944012e-06 1.2663526e-05 1.575259e-05
1.7974731e-05 6.491973e-06 3.2368748e-06 2.8479468e-05 2.8436987e-06 7.0374435e-06 9.83046e-06 -2.1325043e-06
-3.0428686e-05 -8.50144e-05 -0.00010553759 -8.693802e-05 -0.0001114922 0.00017917599 8.499359e-05 -4.3274384e-05
-0.0001353969 -0.00015293386 5.722778e-05 2.2048653e-06 3.4888304e-05 3.636764e-05 5.92451e-05 3.850829e-05
-4.691978e-06 7.047113e-06 6.8000236e-06 1.1865793e-05 9.789625e-06 1.0948442e-05 3.5087087e-05 1.9186422e-05
3.688767e-05 4.2929782e-06 4.842898e-06 4.534279e-06 -0.0001950691 -0.00032871965 -0.00013057781 -0.00016161145
8.9809175e-05 0.00089525944 0.00072332734 -0.000115601535 -0.0017919925 -0.0006604422 -0.00016312851 0.00015203805
0.00064843526 0.00044201344 0.00014958043 1.9989342e-05 1.5523181e-05 -1.1176611e-06 1.3002429e-05 3.113493e-05
3.1503314e-05 -2.8809998e-06 4.334756e-05 1.3717095e-05 4.5333905e-05 0.00013630779 0.00014143292 0.000121460995
-0.00061513693 -0.0022334647 -0.036255036 -0.09042899 -0.02959796 0.006322486 0.00032626622 -0.0010358137
-0.03753431 -0.037478056 -0.0002197112 -0.00014491196 -0.00013577225 0.0006174017 0.0001722377 4.5445606e-05
0.00014013748 0.0001749298 9.2053735e-05 4.2413667e-05 5.137656e-06 1.0462071e-05 2.8599672e-05 4.619033e-05
9.0515394e-05 0.00017163719 0.00021973022 1.2124782e-05 -0.013656746 -0.033681706 -0.044784922 -0.03285204
-0.0043709264 0.014868777 -0.00024103123 0.0047457903 0.0047680344 0.021007594 0.00015935562 0.00067406305
0.004285235 0.00028340516 0.0005674034 0.00019581041 -0.00011900653 -1.4038801e-05 2.4131039e-05 1.1317803e-06
5.8794953e-06 2.5285526e-05 -8.692642e-05 -3.291122e-05 -4.1699433e-05 -7.709673e-06 -0.00015173518 -0.02667601
-0.027734993 -0.005113022 0.0004968247 8.4137e-05 -0.0004307613 1.912219e-05 -0.0011031298 -0.012056057
-0.03003375 -0.014530781 0.0006426951 0.01554518 0.020641156 -0.0028755043 0.0060539134 0.01963921
-0.0001804647 -0.00014053885 -7.718141e-06 -1.7181852e-05 1.2661232e-05 3.4174461e-06 -5.6034765e-05 3.2813605e-05
-4.147654e-05 -0.00071611186 -0.021438016 -0.12446579 -0.12130111 -0.033717684 -0.00023467114 0.009693561
0.011061796 -0.0018527826 -0.014952834 -0.008265411 -0.08374838 -0.009524019 0.00086258 -0.02996344
-0.012362897 -0.009254237 0.0009827277 0.045442197 -0.00015237184 -0.00016227202 -8.352176e-06 4.2025918e-06
1.0324939e-05 2.2511118e-05 2.2498081e-05 2.2099413e-05 -2.1825854e-05 -0.0024834278 -0.015404617 -0.06841278
-0.22106355 -0.13622077 -0.00048341096 -9.266225e-05 0.02082112 -0.029878508 -0.0007133841 0.027523765
0.012913227 -5.587467e-05 -0.03000761 0.0010797407 -4.129735e-07 0.00019535827 0.010317541 0.030177444
0.00088998786 -6.2001527e-06 -3.074255e-06 1.907815e-05 4.1767753e-06 2.3309374e-05 -7.795871e-06 -7.878808e-05
00000000: 5223 b837 db0d e936 0d43 6637 a333 ba37
00000010: cff6 3f35 84f2 0c38 d79b 3638 1520 7136
00000020: 63bd 0138 046e 0437 b46a 6b37 36bb 1637
00000030: 8a5d 4737 4b80 bf37 e9c6 fc37 ee02 7c37
00000040: b7ef 3b37 e7ec 0238 e4e0 b637 32ad da37
00000050: 2cb1 a737 b3e6 8eb5 48c5 4136 a1c4 d636
00000060: 5e53 9337 6b81 bc37 eb42 0b38 3504 6637
00000070: 42cd 6937 416f df37 0149 ba37 dc84 6337
00000080: 827d 9937 de9a ca37 e4c6 7a37 6358 4837
00000090: 68a7 2836 924c da37 d82b 0d37 c1b1 c237
000000a0: eb69 a137 79e2 8937 15d5 9f38 4293 4038
000000b0: e5b7 a3b7 12bf 3438 8fce a837 3f28 c137
000000c0: 92ad 1037 f853 6738 a3f7 ea37 e708 a335
000000d0: d89a d036 35d5 2637 6e75 5437 6e24 8437
000000e0: 71c8 9637 a0d5 d936 1639 5936 31e7 ee37
000000f0: 5fd6 3e36 2e23 ec36 81ed 2437 251c 0fb6
00000100: 1b41 ffb7 c249 b2b8 1054 ddb8 7e52 b6b8
00000110: ebd0 e9b8 30e1 3b39 963e b238 8481 35b8
00000120: 54f9 0db9 df5c 20b9 dc07 7038 4cf7 1336
00000130: 0855 1238 7589 1838 f17d 7838 f683 2138
00000140: c96f 9db6 3d76 ec36 c22b e436 3113 4737
00000150: 1f3e 2437 33af 3737 792a 1338 87f2 a037
00000160: d6b7 1a38 670c 9036 2d80 a236 2925 9836
00000170: 768b 4cb9 0158 acb9 b7eb 08b9 3e76 29b9
00000180: ef57 bc38 d8af 6a3a ad9d 3d3a 1a6f f2b8
00000190: 4ae1 eaba 8721 2dba 7a0d 2bb9 676c 1f39
000001a0: c1fb 293a 0abe e739 b1d8 1c39 c9ae a737
000001b0: c737 8237 8b02 96b5 0225 5a37 e096 0238
000001c0: 6d22 0438 3357 41b6 17d0 3538 7922 6637
000001d0: e924 3e38 d8ed 0e39 9c4d 1439 e0b8 fe38
000001e0: 2441 21ba 525f 12bb 2980 14bd d632 b9bd
000001f0: 6c77 f2bc db2c cf3b b60e ab39 24c4 87ba
00000200: 94bd 19bd 9782 19bd 4762 66b9 82f3 17b9
00000210: 165e 0eb9 20d9 213a b59a 3439 d99c 3e38
00000220: def1 1239 5c6d 3739 f90c c138 54e5 3138
00000230: 2164 ac36 4186 2f37 54e9 ef37 7dbc 4138
00000240: 15d3 bd38 82f9 3339 6267 6639 8b6b 4b37
00000250: 8bc0 5fbc d4f5 09bd 6570 37bd dc8f 06bd
00000260: fd39 8fbb 2c9c 733c 54bd 7cb9 9382 9b3b
00000270: 2c3d 9c3b 1e18 ac3c b318 2739 9bb3 303a
00000280: 286b 8c3b ff95 9439 ccbd 143a 7552 4d39
00000290: 2593 f9b8 3188 6bb7 036d ca37 ade7 9735
000002a0: 7b48 c536 411c d437 444c b6b8 270a 0ab8
000002b0: 6de6 2eb8 cb58 01b7 1a1b 1fb9 a687 dabc
000002c0: 7f34 e3bc 238b a7bb 573d 023a b572 b038
000002d0: ced7 e1b9 9768 a037 e596 90ba c586 45bc
000002e0: 5709 f6bc 8312 6ebc 8a7a 283a 36b1 7e3c
000002f0: a417 a93c f572 3cbb e85f c63b 69e2 a03c
00000300: 203b 3db9 9c5d 13b9 2a7d 01b7 bf21 90b7
00000310: 946b 5437 4757 6536 df06 6bb8 57a1 0938
00000320: 19f7 2db8 74b9 3bba c79e afbc ece7 febd
00000330: b76c f8bd 8e1b 0abd 0e12 76b9 bed1 1e3c
00000340: 893c 353c 11d9 f2ba bbfc 74bc a56b 07bc
00000350: 4584 abbd a20a 1cbc c41e 623a e375 f5bc
00000360: c08d 4abc 159f 17bc dfce 803a 9921 3a3d
00000370: 01c6 1fb9 9027 2ab9 5320 0cb7 fd03 8d36
00000380: 4639 2d37 42d6 bc37 43ba bc37 2162 b937
00000390: aa16 b7b7 01c1 22bb a663 7cbc 001c 8cbd
000003a0: 7c5e 62be 757d 0bbe 5272 fdb9 ab53 c2b8
000003b0: 0e91 aa3c c6c3 f4bc 6602 3bba 8579 e13c
000003c0: 0092 533c f85a 6ab8 85d2 f5bc 1686 8d3a
000003d0: a5b6 ddb4 16d9 4c39 e70a 293c b036 f73c
000003e0: 134e 693a e80a d0b6 4c4f 4eb6 040a a037
000003f0: 3a26 8c36 8088 c337 03cb 02b7 073b a5b8

layers.2.bias f4 [100]
-0.15331203 0.086570285 -0.040251825 -0.12805364 -0.4169775 0.28788197 -0.42063606 0.6814428
0.2510355 -0.2267012 -0.10996747 0.47997662 0.7353359 0.22564909 0.09322191 -0.3873808
0.07288699 0.013604546 -0.18329114 -0.014588627 -0.21575427 0.21366346 -0.6951676 0.10324146
0.60413843 0.38427356 -0.25139144 -0.36625966 -0.098591045 -0.34954077 -0.03586961 -0.058292456
0.0786361 -0.22344172 -0.015436359 0.18712394 0.0070132604 -0.15414886 -0.7378395 0.11486805
0.34038657 0.2221192 0.08896738 -0.031550094 0.5838202 -0.2841448 -0.7083131 0.19794832
-0.43119285 -0.490543 -0.2338825 0.1995125 -0.0849734 -0.31384653 0.22875518 -0.15839952
-0.4286569 0.06962968 0.18109539 -0.73932534 -0.5902342 0.15624014 0.23695186 0.7895579
-0.040975075 0.59471786 0.22979128 -1.0521202 0.1643889 -0.2369098 -0.37544748 -0.39737314
0.03679653 -0.15711413 0.14663729 -0.5362575 0.48472264 -0.4958443 1.0698057 0.0026218027
0.14995065 -0.16385119 -0.63739765 0.005196528 0.32532138 0.09035041 0.4408116 -0.24082935
0.30235142 -0.18725565 0.58328986 -0.18456866 0.13378064 -0.37593246 0.5514668 0.4046031
0.37405118 -0.24541129 0.16697165 0.20554054
00000000: d4fd 1cbe c34b b13d 19df 24bd 7e20 03be
00000010: 137e d5be 4465 933e 9c5d d7be 0973 2e3f
00000020: ba87 803e 5c24 68be a036 e1bd 7fbf f53e
00000030: f93e 3c3f 8e10 673e 21eb be3d c756 c6be
00000040: c645 953d 9ae5 5e3c acb0 3bbe 2305 6fbc
00000050: b0ee 5cbe 98ca 5a3e 81f6 31bf 4270 d33d
00000060: d1a8 1a3f 81bf c43e 61b6 80be 6386 bbbe
00000070: 1aea c9bd 02f7 b2be 03ec 12bd 12c4 6ebd
00000080: f70b a13d e8cd 64be c8e8 7cbc 6b9d 3f3e
00000090: 7ecf e53b 33d9 1dbe 0de3 3cbf f13f eb3d
000000a0: 2647 ae3e 3773 633e 8834 b63d ac3a 01bd
000000b0: 3e75 153f 6d7b 91be 0254 35bf f7b2 4a3e
000000c0: 4fc5 dcbe 7428 fbbe e57e 6fbe 014d 4c3e
000000d0: 8906 aebd 7eb0 a0be cc3e 6a3e 7c33 22be
000000e0: eb78 dbbe 019a 8e3d 1271 393e 6d44 3dbf
000000f0: 9719 17bf 6afd 1f3e 82a3 723e 7720 4a3f
00000100: 7bd5 27bd 6e3f 183f 684e 6b3e e0ab 86bf
00000110: 9055 283e 7c98 72be a73a c0be 7e74 cbbe
00000120: f5b7 163d 87e2 20be 1628 163e 2c48 09bf
00000130: 912d f83e 4edf fdbe 65ef 883f 8dd2 2b3b
00000140: aa8c 193e 9bc8 27be 7e2c 23bf a347 aa3b
00000150: 8690 a63e a309 b93d 0fb2 e13e f89b 76be
00000160: cecd 9a3e f2bf 3fbe 7c52 153f 91ff 3cbe
00000170: cbfd 083e 387a c0be ee2c 0d3f 2328 cf3e
00000180: a383 bf3e 194d 7bbe 9efa 2a3e 3879 523e

layers.4.weight f4 [10, 100]
0.042116374 0.17715235 0.4482997 -0.15217336 -0.4817193 0.026213408 -0.107989006 0.26726726
0.00016076323 -0.35280028 -0.064256504 -0.08389296 0.018961336 -0.07467624 -0.033340823 0.015609574
-0.20396577 0.07372219 -0.051716063 -0.21023016 0.08412402 0.033276763 -0.051995907 0.14925782
0.04434663 0.35965487 0.1166724 -0.7870982 -0.18213142 0.049196057 -0.14926335 -0.532193
0.22647029 0.24185582 -0.42897323 0.07000511 0.05645325 0.20133825 -0.2873256 -0.036139295
0.046800774 0.03795207 -0.22955944 -0.27423367 0.2515783 0.06773261 -0.4787004 0.17509136
-0.067844965 -0.22878878 -0.012609406 -0.5163203 0.22019562 -0.524173 0.3054557 0.13447239
-0.2642047 -0.069879346 -0.05876119 0.11076616 0.05969412 -0.0007338402 0.029541984 -0.19974524
-0.021242293 0.11120259 0.0288164 -0.1646791 0.005318147 0.05907198 -0.1385719 0.13936068
-0.45796287 -0.034274783 0.026497344 -0.44515097 -0.19627173 -0.6678609 0.15634881 0.01741917
-0.33552146 0.12775138 0.0007417963 -0.32007563 -0.6933177 -0.050498273 0.02683837 0.24005434
-0.120896846 -0.064559944 0.3618752 0.14622912 0.17858991 -0.27739292 0.26720196 -0.057845183
0.17626435 -0.32070658 -0.31605724 -0.15107386 -0.029627513 0.03323158 0.20018755 0.069205485
0.16624376 -0.20473747 0.22442389 -0.084627874 -0.13777238 -0.011382713 0.111042686 -0.43677634
-0.117880516 -0.2312978 -0.16233155 -0.43665048 0.37010956 -0.5603428 0.23064262 0.38688532
-0.014691041 0.1483293 0.02520864 0.070811555 -0.16968165 -0.507532 -0.20730631 -0.13176893
-0.25926983 -0.072816655 -0.2508473 0.24370158 0.16289179 -0.039067328 -0.05416351 -0.48921552
-0.5841981 -0.16303703 0.22144173 -0.27666363 -0.003512863 0.37518588 -0.3556191 0.084354416
0.5212661 -0.029894378 0.34390804 -0.15583834 -0.05739705 -0.0070015164 -0.0022133226 0.17871197
-0.10022273 -0.28168356 -0.2891844 -0.06386581 0.15888219 0.2455292 0.004301904 0.09084001
0.29988992 -0.32809025 0.060361553 -0.30959466 -0.17880012 -0.02855674 0.0011356241 0.16904199
-0.20934428 -0.035589013 0.14728536 -0.13228506 -0.0894656 0.2852247 0.42692006 0.0002750024
-0.413541 0.12505968 -0.74214846 -0.009929965 0.33563888 0.34507766 0.049161308 -0.0019083726
0.1437742 0.019613814 0.10046092 0.11068647 -0.04704889 -0.2667728 -0.06650878 -0.4280868
-0.07783286 -0.005652372 -0.1802826 0.13620955 -0.01703825 -0.1559795 -0.28453478 -0.0094889635
-0.33820775 0.16953781 0.27081147 0.1572538 -0.24285686 -0.13539639 0.2523979 -0.013739175
-0.07717267 -0.14487882 0.059846602 -0.0050105583 -0.20304969 -0.1744476 0.19157003 -0.49235052
0.07084116 -0.039850052 0.06180773 0.3853526 0.15744425 -0.1029744 -0.10019066 -0.10854284
0.0010546537 0.1569256 0.21310021 -0.07354352 -0.078810535 -0.4173346 -0.16985826 -0.09024953
-0.31962994 0.20706235 -0.29984304 0.18820828 -0.107054055 0.15293787 0.16662431 0.1616303
-0.014194894 -0.069919035 0.38922748 0.0073190047 -0.13884492 0.14732459 -0.2756748 -0.0404379
-0.03571667 0.12989429 0.19401987 0.0006456431 0.11374301 -0.13590688 0.18753192 -0.51435167
00000000: 3882 2c3d 6d67 353e 8a87 e53e 55d3 1bbe
00000010: e9a3 f6be 80bd d63c 5729 ddbd 41d7 883e
00000020: 8d92 2839 3da2 b4be ea98 83bd 12d0 abbd
00000030: ce54 9b3c dbef 98bd 6390 08bd 4cbf 7f3c
00000040: 67dc 50be a9fb 963d 39d4 53bd 9346 57be
00000050: 3749 ac3d 374d 083d a9f9 54bd 0bd7 183e
00000060: d0a4 353d af24 b83e f0f1 ee3d 457f 49bf
00000070: a980 3abe ce81 493d 7ed8 18be cd3d 08bf
00000080: d4e7 673e 0da9 773e 61a2 dbbe d75e 8f3d
00000090: 863b 673d 9d2b 4e3e 571c 93be cc06 14bd
000000a0: 2bb2 3f3d a173 1b3d a111 6bbe 5b68 8cbe
000000b0: dfce 803e 65b7 8a3d 3818 f5be 264b 333e
000000c0: 4df2 8abd 9b47 6abe af97 4ebc 912d 04bf
000000d0: f67a 613e 3430 06bf b164 9c3e 21b3 093e
000000e0: d745 87be e71c 8fbd 93af 70bd 5ed9 e23d
000000f0: d281 743d 2f5f 40ba 0802 f23c 048a 4cbe
00000100: 5104 aebc 2fbe e33d 5f10 ec3c a3a1 28be
00000110: da43 ae3b 76f5 713d cbe5 0dbe 91b4 0e3e
00000120: 1c7a eabe b763 0cbd f510 d93c d4ea e3be
00000130: 75fb 48be eff8 2abf e719 203e a6b2 8e3c
00000140: 78c9 abbe 42d1 023e 1b75 423a f4e0 a3be
00000150: 457d 31bf 47d7 4ebd 24dc db3c ced0 753e
00000160: c498 f7bd 0138 84bd b547 b93e 16bd 153e
00000170: 46e0 363e 7206 8ebe b2ce 883e 12ef 6cbd
00000180: a47e 343e a733 a4be 41d2 a1be 1bb3 1abe
00000190: 66b5 f2bc d61d 083d f7fd 4c3e 9bbb 8d3d
000001a0: ce3b 2a3e b3a6 51be 60cf 653e 6151 adbd
000001b0: 3414 0dbe 8f7e 3abc 596a e33d 26a1 dfbe
000001c0: 576b f1bd 55d9 6cbe 3e3a 26be a790 dfbe
000001d0: 007f bd3e a072 0fbf 942d 6c3e d515 c63e
000001e0: b1b2 70bc a3e3 173e 5a82 ce3c a605 913d
000001f0: 07c1 2dbe 9eed 01bf 1b48 54be 6fee 06be
00000200: 04bf 84be e620 95bd 0f6f 80be e88c 793e
00000210: 1bcd 263e 1005 20bd 8fda 5dbd 757a fabe
00000220: 028e 15bf 2ef3 26be 9fc1 623e dba6 8dbe
00000230: 1038 66bb 5d18 c03e b513 b6be 02c2 ac3d
00000240: b271 053f 0ee5 f4bc b714 b03e 1694 1fbe
00000250: 2b19 6bbd fa6c e5bb 640d 11bb 4500 373e
00000260: 9341 cdbd d438 90be fa0f 94be 14cc 82bd
00000270: 03b2 223e 026c 7b3e fcf6 8c3b 540a ba3d
00000280: 2c8b 993e 72fb a7be ad3d 773d 3183 9ebe
00000290: 6117 37be d3ef e9bc 39d9 943a 5819 2d3e
000002a0: 595e 56be c9c5 11bd f9d1 163e bc75 07be
000002b0: be39 b7bd f908 923e 4495 da3e 332e 9039
000002c0: a5bb d3be a50f 003e 71fd 3dbf 4bb1 22bc
000002d0: dcd8 ab3e 05ae b03e 5e5d 493d 5c22 faba
000002e0: 8b39 133e 26ad a03c 74be cd3d 97af e23d
000002f0: 56b6 40bd 7296 88be c135 88bd 312e dbbe
00000300: d666 9fbd 8837 b9bb 009c 38be 847a 0b3e
00000310: cd93 8bbc 17b9 1fbe 8bae 91be 9977 1bbc
00000320: 9129 adbe 529b 2d3e cda7 8a3e 2407 213e
00000330: 78af 78be 5aa5 0abe 4c3a 813e 471a 61bc
00000340: b40c 9ebd 1d5b 14be b621 753d 9c2f a4bb
00000350: 42ec 4fbe 64a2 32be ef2a 443e 5e15 fcbe
00000360: 2c15 913d cf39 23bd 1a2a 7d3d f04c c53e
00000370: 1139 213e 3ee4 d2bd c330 cdbd b54b debd
00000380: 4e3c 8a3a 1bb1 203e f136 5a3e fc9d 96bd
00000390: 6b67 a1bd e1ac d5be 53ef 2dbe bfd4 b8bd
000003a0: 89a6 a3be 2708 543e 0785 99be acb9 403e
000003b0: 283f dbbd bf9b 1c3e 909f 2a3e 6a82 253e
000003c0: b391 68bc b631 8fbd d348 c73e 43d4 ef3b
000003d0: 5d2d 0ebe 42dc 163e 3f25 8dbe 36a2 25bd
000003e0: a54b 12bd 0203 053e 25ad 463e 6040 293a
000003f0: 18f2 e83d 2c2b 0bbe 5e08 403e 8dac 03bf

layers.4.bias f4 [10]
-0.06333529 -0.2573847 -0.08877033 -0.3899913 0.092894666 0.17374653 0.14802897 -0.25202802
0.6478953 0.08231324
00000000: efb5 81bd edc7 83be 38cd b5bd f1ac c7be
00000010: 8f3f be3d 9cea 313e e894 173e d109 81be
00000020: 77dc 253f d893 a83d
