mnist_nets/fc2.pt (torch_old, 170413 bytes, 6 tensors)

layers.2.weight f4 [50, 784]
9.1908536e-05 9.255545e-05 9.0147856e-05 0.000103831306 9.735943e-05 9.137931e-05 9.390995e-05 0.00010190133
8.556699e-05 9.280831e-05 0.000102177466 0.00010985063 8.521621e-05 8.891698e-05 9.217317e-05 0.00011324469
0.00011017317 9.1715076e-05 0.00010825622 8.623663e-05 8.56845e-05 0.000109274915 9.505758e-05 9.472403e-05
9.684473e-05 0.00011130485 9.526682e-05 9.641131e-05 9.5580304e-05 9.7269025e-05 9.531984e-05 8.132202e-05
0.0001059347 0.00010171694 7.488739e-05 9.741686e-05 0.00020721125 0.00011795441 8.9195404e-05 7.782702e-05
6.643858e-05 9.021582e-05 9.1136695e-05 4.376941e-05 3.7626196e-05 6.922958e-05 0.000102148806 6.424026e-05
7.772855e-05 0.00013673012 0.000105086314 8.046513e-05 9.6631484e-05 8.603397e-05 9.992883e-05 9.3161485e-05
8.923368e-05 8.228197e-05 9.620473e-05 8.0643484e-05 9.9026016e-05 9.783628e-05 6.778051e-05 9.593106e-05
0.000233334 0.00012831719 0.00010176076 0.00010186224 8.3185154e-07 1.839997e-05 0.00013775472 5.004082e-05
1.7789605e-05 0.00018522744 0.0001570998 4.6337333e-05 3.8373542e-05 0.00011570129 9.5435724e-05 7.758217e-05
9.462276e-05 9.651878e-05 8.4262174e-05 9.435424e-05 0.00010462172 9.5340154e-05 0.000119331075 8.3480954e-05
8.157171e-05 7.904543e-05 1.449466e-05 -1.7456505e-05 0.00010645689 0.0001588759 -2.8455002e-05 -0.00035608374
-0.0007434256 -0.004329553 -0.03408934 -0.015726345 -0.00013301308 9.17244e-05 -0.00015667961 -3.669172e-05
-1.4262973e-06 -3.43908e-05 -0.00012962095 -1.3556372e-05 9.932432e-05 0.00012569415 9.580156e-05 7.157254e-05
9.708786e-05 9.735349e-05 0.0001535682 0.0001378998 0.00012985175 -1.4731216e-05 1.11810905e-05 -6.0946724e-05
-2.0471838e-05 0.0001315043 0.0074893865 0.0003665139 -0.02614519 -0.041949652 -0.058902383 -0.054558977
-0.017866137 0.009378682 0.008234973 -0.0058472296 0.00026168817 6.1804654e-05 6.5689346e-05 5.340601e-05
0.0004493842 0.00024411078 0.00012179077 9.305004e-05 9.3271046e-05 8.9174086e-05 9.8712546e-05 0.00010269813
0.000102771766 -0.00016737854 -0.00032474875 -0.0006076333 -0.003412547 -0.0015857862 -0.0057303635 -0.047556993
-0.015040459 -0.0336652 -0.14062531 -0.092906415 -0.01717172 0.057516202 0.14269833 0.0072288644
-0.026391007 -0.01921196 1.7189182e-05 0.0011120456 0.00058646256 0.00026735532 0.0001565859 0.00010819578
9.953124e-05 7.1002054e-05 0.00014418965 0.000106936684 3.26682e-05 -0.00021325657 -0.0024994565 -0.021104377
0.0060217176 0.025042389 0.002720245 0.01836469 -0.009745832 -0.12913284 -0.098790176 -0.06767378
-0.00031690902 0.09032721 0.052786373 -0.020763073 -0.027036397 -0.012829679 -0.02210454 0.020390937
0.00060788065 0.00021461218 0.00012855283 0.000103942504 0.00011966251 0.00011113679 0.00015998399 5.2441792e-05
0.00011250733 0.00022225559 -0.0011524686 0.008855159 0.035186898 0.043441586 0.033416856 0.004545675
-0.05733389 -0.09782569 -0.11678865 -0.0458288 0.041557316 0.028370794 0.027809797 0.009685484
0.006570072 0.021618407 -0.0101874545 0.019305306 0.0003707099 0.00034150927 0.00012650962 0.00010611262
9.380125e-05 0.000102253594 0.00012421429 7.024461e-05 0.00043755386 0.0010563293 0.0018523635 0.019589607
0.08142901 0.047115363 0.055479746 -0.0055028703 -0.024208603 0.005964044 -0.046654016 -0.073636614
-0.08213897 -0.037176207 -0.052889638 0.01162206 0.024452526 0.03470684 0.017146206 -0.002353293
0.01792641 0.00038479047 0.00010446933 0.00012123135 7.6189914e-05 0.000102955666 8.385155e-05 0.00017943958
00000000: 05bf c038 541a c238 c30d bd38 02c0 d938
00000010: 722d cc38 e5a2 bf38 85f1 c438 dcb3 d538
00000020: 6e72 b338 15a2 c238 1c48 d638 9c5f e638
00000030: 1bb6 b238 f178 ba38 184d c138 c87d ed38
00000040: c50c e738 2857 c038 9e07 e338 f0d9 b438
00000050: 84b1 b338 862a e538 a659 c738 94a6 c638
00000060: 1e19 cb38 566c e938 fcc9 c738 6e30 ca38
00000070: 4972 c838 e9fc cb38 73e6 c738 6d8b aa38
00000080: 4229 de38 de50 d538 dd0c 9d38 474c cc38
00000090: d946 5939 4b5e f738 6b0e bb38 1037 a338
000000a0: f154 8b38 4032 bd38 a420 bf38 0c95 3738
000000b0: d2d0 1d38 592f 9138 b938 d638 bab8 8638
000000c0: 3302 a338 365f 0f39 c961 dc38 63bf a838
000000d0: a2a6 ca38 236d b438 e290 d138 b15f c338
000000e0: f822 bb38 cc8e ac38 85c1 c938 241f a938
000000f0: 30ac cf38 742d cd38 6225 8e38 982e c938
00000100: 1eab 7439 e28c 0639 6468 d538 e09e d538
00000110: 674c 5f35 a259 9a37 4072 1039 ece2 5138
00000120: e33a 9537 9d39 4239 28bb 2439 555a 4238
00000130: 47f3 2038 a8a4 f238 aa24 c838 9cb3 a238
00000140: 3570 c638 206a ca38 e9b5 b038 0ce0 c538
00000150: 5c68 db38 5bf1 c738 6241 fa38 7f12 af38
00000160: 7a11 ab38 31c5 a538 172e 7337 8f6f 92b7
00000170: 9c41 df38 ed97 2639 a7b2 eeb7 c0b0 bab9
00000180: 73e2 42ba ecde 8dbb 44a1 0bbd 89d4 80bc
00000190: 6d79 0bb9 2a5c c038 5d4a 24b9 6fe5 19b8
000001a0: 346f bfb5 d73e 10b8 dcea 07b9 2d70 63b7
000001b0: 574c d038 c4cc 0339 12e9 c838 3719 9638
000001c0: a69b cb38 422a cc38 2607 2139 3299 1039
000001d0: d028 0839 1726 77b7 6b96 3b37 0ca1 7fb8
000001e0: f0ba abb7 6be4 0939 8769 f53b aa28 c039
000001f0: 702e d6bc 66d3 2bbd a043 71bd 3c79 5fbd
00000200: 015c 92bc 0ba9 193c fbeb 063c 1e9a bfbb
00000210: 3133 8939 1f9d 8138 b3c2 8938 4400 6038
00000220: 549b eb39 fdf7 7f39 ec69 ff38 dc23 c338
00000230: 839a c338 f902 bb38 e503 cf38 a45f d738
00000240: 2c87 d738 5682 2fb9 0a43 aab9 9549 1fba
00000250: 0aa5 5fbb 28da cfba c6c5 bbbb 1fcb 42bd
00000260: 426c 76bc 85e4 09bd 1500 10be b845 bebd
00000270: b5ab 8cbc 1c96 6b3d 831f 123e 1ce0 ec3b
00000280: f431 d8bc 6662 9dbc 7d31 9037 0fc2 913a
00000290: d6bc 193a d32b 8c39 3531 2439 2be7 e238
000002a0: 6dbb d038 f0e6 9438 9d31 1739 3243 e038
000002b0: 3605 0938 a09d 5fb9 eccd 23bb 16e3 acbc
000002c0: d451 c53b b225 cd3c 2346 323b 8c71 963c
000002d0: fbac 1fbc 663b 04be 8152 cabd 8d98 8abd
000002e0: cf26 a6b9 79fd b83d 8636 583d 5217 aabc
000002f0: 6f7b ddbc 9333 52bc 9514 b5bc e50a a73c
00000300: 2e5a 1f3a 8509 6139 23cc 0639 b5fb d938
00000310: 52f3 fa38 1c12 e938 60c1 2739 f2f4 5b38
00000320: eaf1 eb38 480d 6939 6e0e 97ba 3b15 113c
00000330: 2320 103d ceef 313d 1de0 083d e3f3 943b
00000340: f1d6 6abd d658 c8bd e32e efbd fbb6 3bbd
00000350: 0138 2a3d de69 e83c 5fd1 e33c ddaf 1e3c
00000360: c249 d73b 1619 b13c 48e9 26bc 2926 9e3c
00000370: d75b c239 990c b339 aba7 0439 c788 de38
00000380: 2ab7 c438 fb70 d638 853f 0239 4a50 9338
00000390: 7c67 e539 8874 8a3a 01cb f23a 627a a03c
000003a0: 41c4 a63d 0afc 403d bb3e 633d 6c51 b4bb
000003b0: 1f51 c6bc 076e c33b 4818 3fbd cbce 96bd
000003c0: 7a38 a8bd 1446 18bd cea2 58bd 746a 3e3c
000003d0: aa50 c83c c228 0e3d 3376 8c3c b439 1abb
000003e0: 68da 923c b4bd c939 8b16 db38 963d fe38
000003f0: 26c8 9f38 e7e9 d738 75d9 af38 f227 3c39

layers.2.bias f4 [50]
-0.3106285 -0.1906603 -0.09168072 -0.30337006 -0.17964527 0.7733471 -0.24455513 0.39303976
0.45568055 -0.46817452 -0.5976119 0.10597623 -0.14227569 0.40518808 -0.02278061 -0.25807294
1.2892003 -0.19751988 -0.7077318 -0.029456945 -0.6342009 0.46563908 0.2724958 0.22687697
0.8858096 0.19130011 0.45603374 -0.19997776 0.28010175 0.48361066 0.35044062 0.03372318
0.31216964 0.2889929 0.06256973 0.22338404 0.17544486 0.41565478 0.0025354621 -0.024274787
1.1699892 0.26233503 0.1064068 0.56716853 0.8277292 -0.5592942 0.48428628 0.63876957
-0.2650482 1.1963576
00000000: b30a 9fbe 743c 43be 1ac3 bbbd 5253 9bbe
00000010: eef4 37be 13fa 453f a96c 7abe 823c c93e
00000020: f64e e93e 92b4 efbe 18fd 18bf 110a d93d
00000030: b8b0 11be d074 cf3e 679e babc 2322 84be
00000040: 8404 a53f a742 4abe e92d 35bf b14f f1bc
00000050: fd5a 22bf 3f68 ee3e 9284 8b3e 7052 683e
00000060: 6bc4 623f 2de4 433e 417d e93e f8c6 4cbe
00000070: 7f69 8f3e d19b f73e f46c b33e 5121 0a3d
00000080: b3d4 9f3e e1f6 933e 8f24 803d c9be 643e
00000090: d1a7 333e b4d0 d43e ff29 263b ebdb c6bc
000000a0: 35c2 953f c750 863e cfeb d93d f531 113f
000000b0: 10e6 533f e82d 0fbf 5ff4 f73e 6786 233f
000000c0: 66b4 87be 3f22 993f

layers.4.weight f4 [50, 50]
-0.24055098 0.21174547 -0.073076405 -0.03813968 -0.1321402 -0.06264411 0.07148578 0.07026379
-0.15824886 0.079531714 -0.043258853 -0.03575075 -0.053448606 -0.14715756 0.24816136 0.16739611
-0.01340788 0.078663744 -0.21146536 -0.11704653 0.15257166 -0.34687507 0.11413964 0.032734916
-0.0902578 0.07845434 0.15752551 0.09922784 0.009560521 0.1861613 -0.025138449 0.064578556
-0.06172857 0.14903802 -0.096453264 -0.0065282094 0.13138302 -0.13134807 -0.27510056 0.016921764
-0.24638098 0.19765338 0.013875715 0.09950117 0.018555967 0.18381542 -0.054897014 0.2800171
0.16945302 -0.3100908 0.10672088 -0.04907985 0.07125044 -0.16777171 0.043567345 -0.05701198
0.253091 0.039053384 -0.052987363 0.021076897 -0.18503892 -0.007258424 0.029763807 0.13723035
-0.118705995 0.14399529 0.015758501 0.06422339 0.23636311 -0.1275865 -0.03960627 0.10170976
-0.22364213 -0.12821859 0.01883196 0.027622638 0.015041889 -0.12516674 -0.1557962 0.18475182
0.061937466 0.023292083 0.16471064 -0.10623913 -0.18671755 0.09321801 0.02203886 0.0043761083
-0.12744442 0.16734883 0.22790039 0.077341504 -0.1279471 -0.077471614 -0.03802743 -0.014611962
-0.00926049 -0.101488456 0.036774684 0.020907551 -0.2259267 0.07173653 0.0296201 -0.07231236
-0.15391245 -0.07718747 -0.18741609 0.121574655 0.08252742 -0.00096901634 0.03258705 -0.14133121
-0.006830314 0.2637905 0.013178801 -0.08938515 -0.13389072 -0.20625284 -0.07819732 -0.25002292
0.08603558 0.1838094 0.24232231 -0.13264942 -0.37279654 -0.02822922 -0.09845558 0.07009293
0.2199224 0.048123825 0.11987515 -0.03808072 -0.077095546 0.07551554 0.11303147 0.020692518
0.08811475 0.082134634 0.1637163 0.10621902 -0.115744725 0.055823382 0.049592886 0.037222408
0.031130433 0.45022067 -0.13863972 0.024379652 0.4581056 -0.07519708 2.8012246e-07 -1.9053914e-06
-2.355039e-06 -9.546865e-06 1.8655156e-07 -7.846226e-06 1.1164649e-05 -5.7709362e-06 7.964834e-06 -4.7936574e-06
-1.8249964e-05 8.323325e-06 -4.383417e-06 1.7630138e-05 8.945652e-06 7.947768e-06 3.7147827e-06 -1.9219176e-06
-8.4326706e-07 5.3839144e-06 -2.3492032e-05 3.7232126e-06 -5.521435e-06 8.972969e-06 1.476154e-05 9.551058e-06
-8.371126e-06 -1.3928507e-06 -1.0928775e-05 1.200451e-07 -5.659592e-06 -5.137993e-06 -1.8968302e-07 1.8480289e-07
9.805245e-06 8.2651695e-06 8.095868e-06 2.0856137e-06 9.87577e-07 6.2438303e-06 -5.0437866e-06 1.6041697e-06
-5.930496e-06 -6.384403e-06 -5.660071e-06 6.3452662e-06 5.2108535e-06 3.1775523e-06 6.491117e-06 -1.0411922e-05
-0.040100414 -0.011654553 -0.10776768 0.18771863 -0.14591226 -0.06148299 -0.07201461 0.03159279
0.16692826 -0.06599903 -0.13928576 -0.21308626 0.04016406 0.034508552 -0.011113668 0.045332007
0.020923432 0.06352565 0.28674814 0.01538556 -0.15241146 -0.14230223 -0.024105998 -0.2726679
0.0727185 -0.28766218 0.46634108 0.13503787 0.057918627 0.06764934 -0.26893628 0.105692096
0.18449254 0.5539367 -0.15430911 -0.09666227 -0.30107233 -0.00212356 0.12861423 -0.14458665
-0.12521067 -0.023807783 0.052133426 -0.19210733 0.0636647 0.085310884 -0.28163075 0.16340415
-0.005353662 -0.14639951 -0.009920777 -0.094226524 0.0015161783 0.22652748 -0.048679616 -0.036217205
00000000: ff52 76be ced3 583e 15a9 95bd 5a38 1cbd
00000010: c34f 07be 8e4b 80bd 2367 923d 76e6 8f3d
00000020: fd0b 22be 86e1 a23d 3230 31bd 616f 12bd
00000030: edec 5abd 79b0 16be 031e 7e3e e369 2b3e
00000040: baac 5bbc 751a a13d 608a 58be 17b6 efbd
00000050: bf3b 1c3e 9c99 b1be 0bc2 e93d 0c15 063d
00000060: 15d9 b8bd abac a03d 5e4e 213e f737 cb3d
00000070: bba3 1c3c 11a1 3e3e 26ef cdbc c341 843d
00000080: 19d7 7cbd 6c9d 183e 4a89 c5bd 97ea d5bb
00000090: 4589 063e 1c80 06be fbd9 8cbe 839f 8a3c
000000a0: 4c4b 7cbe a665 4a3e f856 633c 45c7 cb3d
000000b0: af02 983c 1c3a 3c3e b1db 60bd 675e 8f3e
000000c0: 1885 2d3e 39c4 9ebe 7a90 da3d f407 49bd
000000d0: c0eb 913d 59cc 2bbe ac73 323d 6585 69bd
000000e0: 2595 813e 71f6 1f3d 4709 59bd 75a9 ac3c
000000f0: d87a 3dbe 13d8 edbb 3ad3 f33c 1d86 0c3e
00000100: 211c f3bd 8073 133e f917 813c 8d87 833d
00000110: 2c09 723e 09a6 02be 2f3a 22bd 354d d03d
00000120: 7102 65be bc4b 03be 7c45 9a3c df48 e23c
00000130: 4172 763c b62b 00be 0a89 1fbe 952f 3d3e
00000140: 24b2 7d3d 0acf be3c e8a9 283e e793 d9bd
00000150: e332 3fbe 16e9 be3d d78a b43c 7565 8f3b
00000160: ca80 02be 7e5d 2b3e b85e 693e 3965 9e3d
00000170: 9104 03be 70a9 9ebd a7c2 1bbd 0367 6fbc
00000180: 4fb9 17bc 2ed9 cfbd 0da1 163d 5046 ab3c
00000190: 5459 67be 9aea 923d daa5 f23c 8118 94bd
000001a0: 3a9b 1dbe 7714 9ebd 01ea 3fbe 22fc f83d
000001b0: 2304 a93d 9605 7eba 007a 053d 21b9 10be
000001c0: d4d0 dfbb 8c0f 873e e6eb 573c 900f b7bd
000001d0: a61a 09be f233 53be eb25 a0bd 0103 80be
000001e0: 6c33 b03d 8838 3c3e 5723 783e 40d5 07be
000001f0: 30df bebe f740 e7bc 14a3 c9bd e28c 8f3d
00000200: 5633 613e 7d1d 453d 1a81 f53d 87fa 1bbd
00000210: 45e4 9dbd e4a7 9a3d 0b7d e73d 5b83 a93c
00000220: 8275 b43d 3436 a83d 3fa5 273e 5c89 d93d
00000230: 920b edbd 0fa7 643d e921 4b3d 8676 183d
00000240: 4005 ff3c 5383 e63e 92f7 0dbe d6b7 c73c
00000250: d18c ea3e ed00 9abd bd63 9634 c0bc ffb5
00000260: 430b 1eb6 792b 20b7 e74e 4834 49a3 03b7
00000270: cd4f 3b37 f7a3 c1b6 b4a0 0537 34d9 a0b6
00000280: 8017 99b7 69a4 0b37 4415 93b6 6fe4 9337
00000290: 4815 1637 6757 0537 7b4b 7936 4bfa 00b6
000002a0: df5c 62b5 79a7 b436 c110 c5b7 4edc 7936
000002b0: c444 b9b6 9c8a 1637 55a8 7737 7b3d 2037
000002c0: b671 0cb7 fcf1 bab5 bb5a 37b7 bfe5 0034
000002d0: 86e7 bdb6 0667 acb6 acab 4bb4 3b6e 4634
000002e0: 3581 2437 a2aa 0a37 7dd3 0737 92f6 0b36
000002f0: e38c 8435 1882 d136 cc3d a9b6 da4e d735
00000300: 93fe c6b6 9b39 d6b6 a4eb bdb6 6ce9 d436
00000310: e4d8 ae36 ef3d 5536 45ce d936 ddae 2eb7
00000320: 5540 24bd bdf2 3ebc 4db5 dcbd 5039 403e
00000330: 066a 15be 96d5 7bbd 657c 93bd 7167 013d
00000340: 3eef 2a3e 802a 87bd eda0 0ebe 4933 5abe
00000350: 1283 243d d758 0d3d 1a16 36bc 0eae 393d
00000360: 9e67 ab3c bc19 823d a7d0 923e b713 7c3c
00000370: c011 1cbe adb7 11be f179 c5bc 219b 8bbe
00000380: 70ed 943d 7548 93be 42c4 ee3e 5e47 0a3e
00000390: 153c 6d3d bd8b 8a3d 04b2 89be 1975 d83d
000003a0: 9deb 3c3e ccce 0d3f 3503 1ebe def6 c5bd
000003b0: 2726 9abe 6d2b 0bbb 73b3 033e 860e 14be
000003c0: 3a37 00be 8a08 c3bc dc89 553d c9b7 44be
000003d0: a362 823d 79b7 ae3d e831 90be 6b53 273e
000003e0: c66d afbb c1e9 15be c18a 22bc d6f9 c0bd
000003f0: 80ba c63a d2f6 673e 4764 47bd 7e58 14bd

layers.4.bias f4 [50]
-0.056205608 0.33920386 -0.030517837 -0.16275637 0.0552214 -0.083768934 0.49916798 0.021045197
0.0070399083 0.015230406 0.25289375 0.008352095 0.20772278 0.02298993 -0.10877639 0.24591099
0.018815782 0.11926779 0.19456522 -0.4872021 0.25646818 0.07384836 0.11246898 0.13312903
-0.04026612 -0.17065991 0.34283435 0.37887964 0.14608973 -0.02944007 0.14060202 -0.0015648524
-0.12926598 0.060134213 0.51815873 -0.52575487 0.037244998 -0.23168762 -0.35787547 0.18695559
0.3420854 -0.4574676 -0.45076045 0.24132209 0.21412864 0.068669714 0.13256222 -0.0350416
0.040950637 0.10376876
00000000: da37 66bd 21ac ad3e 8b00 fabc 9ba9 26be
00000010: d62f 623d 0c8f abbd f292 ff3e fa66 ac3c
00000020: 08af e63b f488 793c 4a7b 813e 3ad7 083c
00000030: 48b5 543e 6155 bc3c 28c6 debd 17d0 7b3e
00000040: 8e23 9a3c ac42 f43d 1b3c 473e 8e72 f9be
00000050: cc4f 833e cf3d 973d 2356 e63d fa52 083e
00000060: 16ee 24bd 79c1 2ebe fc87 af3e 83fc c13e
00000070: 8c98 153e 4d2c f1bc faf9 0f3e bc1b cdba
00000080: 4d5e 04be 4b4f 763d 0da6 043f df97 06bf
00000090: 368e 183d 853f 6dbe 743b b7be 4971 3f3e
000000a0: d125 af3e 3139 eabe 13ca e6be 231d 773e
000000b0: 8a44 5b3e b5a2 8c3d 64be 073e c887 0fbd
000000c0: dbbb 273d b784 d43d

layers.6.weight f4 [10, 50]
-0.30809584 0.011469547 -0.2773263 -1.994336e-05 0.2967267 0.013749909 -0.04181967 -0.3271135
-0.14870128 0.12124521 -0.23036575 -0.20353678 -0.009209564 0.10232868 0.18892428 -0.13292097
0.098089 0.25483555 0.011628881 -0.19929054 0.16174516 -0.08177832 -0.31116155 0.078328714
0.123302944 -0.3364109 -0.026986782 0.19375789 0.07957147 0.10611722 -0.15653485 0.082025774
-0.337015 -0.12971224 -0.09651606 -0.21157895 -0.06666144 -0.37056372 -0.051328197 0.06618932
0.1388586 0.1343294 0.12751389 0.02273696 -0.2530544 -0.19729502 -0.1323656 0.19530849
-0.10750091 0.10442334 0.38988447 0.12425136 -0.1990894 -1.6874071e-06 -0.3042759 0.096401595
-0.5627479 0.26440468 0.203529 -0.12803543 -0.14186464 -0.1331647 0.36396983 -0.00073063385
-0.22775799 -0.061203558 -0.23616892 -0.13167869 0.3169289 0.21236366 -0.092085846 -0.0831114
-0.080810905 -0.097004816 0.29869658 0.39110035 -0.28630915 -0.079869546 0.013118461 -0.15385853
-0.13544713 -0.058757577 0.060820512 0.22422186 -0.20836854 0.25231537 -0.083670214 -0.029888071
0.2487902 -0.006447704 -0.0864658 0.1353271 0.08216528 -0.055559818 -0.20246671 -0.33961168
-0.13379453 0.2095598 0.027195675 0.0187396 -0.10521571 -0.057421822 -0.15707895 7.047901e-07
0.12773801 -0.014571971 -0.6074631 -0.3088431 0.0932395 0.004221513 -0.32506433 0.15979768
-0.08503215 0.11830073 0.23615977 -0.2560751 0.23604494 0.12225656 -0.24626696 0.038313
0.1173362 0.2500504 0.1488223 -0.14490427 -0.010453564 0.12545474 -0.23067038 -0.14413565
-0.12383523 -0.06293692 0.17509663 0.15600592 0.17084277 0.1633309 0.002480464 -0.13304302
-0.18856527 0.26208812 -0.17562921 0.13978651 0.15062304 0.062520206 -0.117376335 0.12790386
-0.05019372 -0.061398022 0.017867368 -0.035856146 -0.1436764 -0.2541795 -0.402709 0.054689933
0.094503745 -4.027948e-06 0.18271741 -0.09927206 0.011518074 -0.01645519 -0.15729344 0.26529512
0.11486448 0.2669662 -0.051026937 0.05299702 -0.38022494 0.19319282 0.18237795 0.16585003
-0.25299332 0.09414011 -0.084775545 -0.0031582548 0.003881751 -0.00039612313 -0.073696904 0.035706166
0.11808924 -0.18972847 0.14388125 -0.012230115 0.052805137 0.092758276 0.28669485 0.033444952
-0.2335351 0.048656784 -0.15760896 0.097442135 -0.11491643 -0.11799189 -0.02192743 0.059661068
-0.019233262 0.015071687 -0.13414414 0.05269328 -0.16810574 -0.14381403 -0.04916783 -0.010262166
0.010495671 -0.19259687 0.17842905 1.2521695e-05 -0.22675337 -0.15146095 0.051206697 0.05554353
-0.1369729 -0.021924233 0.021602416 -0.103925295 0.4806867 -0.07694626 0.18500984 0.27012298
-0.34458384 -0.10747997 0.11821527 -0.10613854 0.1545743 -0.3345514 -0.015108587 -0.10914756
-0.14474078 -0.14996623 0.06103968 -0.17514817 0.08506835 -0.4298138 0.12497075 -0.2050513
-0.25654775 0.06241714 0.039658982 -0.14892946 0.16725467 -0.10540194 0.11780364 0.3080833
-0.027269207 -0.01320689 0.20253636 0.20158638 0.005119209 -0.12800357 -0.039641514 -0.1749679
0.11171826 0.048042234 -0.15832777 -0.10477779 0.046142165 8.3766554e-07 0.19583432 0.31508538
00000000: bdbe 9dbe c4ea 3b3c b6fd 8dbe 0a4c a7b7
00000010: 90ec 973e 4c47 613c 1a4b 2bbd 6c7b a7be
00000020: 2645 18be 694f f83d 00e5 6bbe f26b 50be
00000030: b6e3 16bc b391 d13d 5e75 413e 6f1c 08be
00000040: e3e2 c83d ce79 823e 1087 3e3c d212 4cbe
00000050: 86a0 253e 647b a7bd 9150 9fbe ce6a a03d
00000060: 4186 fc3d 0d3e acbe 6213 ddbc 7868 463e
00000070: 5ef6 a23d fc53 d93d ac4a 20be 21fd a73d
00000080: 3b8d acbe 49d3 04be 36aa c5bd 27a8 58be
00000090: cb85 88bd 87ba bdbe 843d 52bd 448e 873d
000000a0: f330 0e3e a58d 093e 0093 023e dc42 ba3c
000000b0: 5990 81be b507 4abe d98a 07be f3fe 473e
000000c0: 7029 dcbd e7db d53d f09e c73e 7f77 fe3d
000000d0: 17de 4bbe de7a e2b5 0dca 9bbe 336e c53d
000000e0: 3f10 10bf 0d60 873e e869 503e b81b 03be
000000f0: f744 11be 545c 08be 415a ba3e 0288 3fba
00000100: 6439 69be 95b0 7abd 44d6 71be c7d6 06be
00000110: 8144 a23e dc75 593e 8197 bcbd 4f36 aabd
00000120: 3080 a5bd 76aa c6bd c2ee 983e 4e3e c83e
00000130: 1d97 92be a592 a3bd d0ee 563c 178d 1dbe
00000140: a7b2 0abe c9ab 70bd ee1e 793d 6a9a 653e
00000150: 905e 55be 7b2f 813e 4a5b abbd d4d7 f4bc
00000160: dcc2 7e3e 4347 d3bb fb14 b1bd 3093 0a3e
00000170: 4546 a83d b192 63bd 6f53 4fbe 95e1 adbe
00000180: 6f01 09be d896 563e 77c9 de3c ca83 993c
00000190: 567b d7bd 2533 6bbd 4ed9 20be cf30 3d35
000001a0: c1cd 023e 47bf 6ebc b482 1bbf af20 9ebe
000001b0: 5af4 be3d 9e54 8a3b d56e a6be 01a2 233e
000001c0: 5625 aebd a747 f23d ded3 713e 471c 83be
000001d0: c4b5 713e a661 fa3d 682d 7cbe 18ee 1c3d
000001e0: f64d f03d 9b06 803e df64 183e c961 14be
000001f0: 6d45 2bbc 3577 003e db34 6cbe 4c98 13be
00000200: 539d fdbd 12e5 80bd 884c 333e 04c0 1f3e
00000210: 68f1 2e3e 3740 273e 488f 223b 6e3c 08be
00000220: 4117 41be 6a30 863e 25d8 33be 3224 0f3e
00000230: ed3c 1a3e 980a 803d 0163 f0bd 3bf9 023e
00000240: ee97 4dbd 7e7c 7bbd 965e 923c e5dd 12bd
00000250: e81f 13be d123 82be e02f cebe 8d02 603d
00000260: 2e8b c13d cf27 87b6 461a 3b3e 264f cbbd
00000270: 4eb6 3c3c 09cd 86bc 8811 21be c3d4 873e
00000280: 123e eb3d cbaf 883e 9f01 51bd 6713 593d
00000290: d8ac c2be 57d4 453e 49c1 3a3e 97d4 293e
000002a0: 5788 81be 88cc c03d cd9e adbd b9fa 4ebb
000002b0: fa64 7e3b bfae cfb9 67ee 96bd a140 123d
000002c0: c5d8 f13d 2e48 42be 9b55 133e d260 48bc
000002d0: 334a 583d 0df8 bd3d abc9 923e 93fd 083d
000002e0: d323 6fbe 564c 473d 3e64 21be be8f c73d
000002f0: 4e59 ebbd bba5 f1bd 27a1 b3bc 2a5f 743d
00000300: 138f 9dbc 3def 763c 155d 09be e9d4 573d
00000310: e923 2cbe fc43 13be 3564 49bd a522 28bc
00000320: 09f6 2b3c 1d38 45be 1bb6 363e 4514 5237
00000330: 0932 68be 9418 1bbe 1dbe 513d 9d81 633d
00000340: a042 0cbe 739a b3bc 8df7 b03c c9d6 d4bd
00000350: 911c f63e 0096 9dbd 3873 3d3e 8f4d 8a3e
00000360: 4b6d b0be 751e dcbd d91a f23d 2a5f d9bd
00000370: ba48 1e3e 524a abbe 028a 77bc c288 dfbd
00000380: ed36 14be bf90 19be be04 7a3d 0b5a 33be
00000390: 5138 ae3d 8e10 dcbe aaf0 ff3d f8f8 51be
000003a0: 3a5a 83be 1da9 7f3d 7571 223d f780 18be
000003b0: cf44 2b3e f9dc d7bd 0943 f13d 18bd 9d3e
000003c0: ac63 dfbc b661 58bc b165 4f3e a96c 4e3e
000003d0: 0abf a73b 5e13 03be 245f 22bd c92a 33be
000003e0: 8bcc e43d efc7 443d ad20 22be bd95 d6bd
000003f0: 91ff 3c3d f0db 6035 cb88 483e df52 a13e

layers.6.bias f4 [10]
-0.058559626 -0.23631832 -0.08812813 -0.35063735 0.18728122 0.11043176 0.19572037 -0.37391034
0.37592024 -0.03336444
00000000: 38dc 6fbd 6efd 71be 857c b4bd bd86 b3be
00000010: a6c6 3f3e 0c2a e23d ec6a 483e 2d71 bfbe
00000020: 9e78 c03e 27a9 08bd
