mnist_nets/fc3.pt (torch_old, 359615 bytes, 6 tensors)

layers.2.weight f4 [100, 784]
0	0x3843caa1	4.6680336e-05
1	0x38403bf6	4.583221e-05
2	0x38497b2d	4.803685e-05
3	0x38586e5b	5.160119e-05
4	0x38571047	5.1275154e-05
5	0x3837bc8c	4.3806198e-05
6	0x3852e944	5.0285147e-05
7	0x3843eae1	4.671037e-05
8	0x383a0064	4.434622e-05
9	0x38472568	4.7480135e-05
10	0x38450502	4.6973124e-05
11	0x3844f4de	4.6958092e-05
12	0x38306d5c	4.206352e-05
13	0x385a6f7e	5.2079085e-05
14	0x385a4748	5.2041636e-05
15	0x38510066	4.9829854e-05
16	0x38442e9b	4.6773446e-05
17	0x3844529b	4.6806974e-05
18	0x3857ce6a	5.1452233e-05
19	0x385386d7	5.04319e-05
20	0x3844361b	4.678043e-05
21	0x38425f75	4.6342106e-05
22	0x383a09af	4.4354874e-05
23	0x38422dc2	4.629582e-05
24	0x3857afea	5.1423827e-05
25	0x3845d956	4.717087e-05
26	0x3845c84c	4.7155e-05
27	0x382c0e79	4.1021474e-05
28	0x38416dfd	4.611722e-05
29	0x38470b71	4.7455953e-05
30	0x3845ed3e	4.718941e-05
31	0x3849307d	4.7967293e-05
32	0x384933fd	4.7970552e-05
33	0x3843a8c6	4.6648805e-05
34	0x3836e8dc	4.360905e-05
35	0x382ef181	4.170975e-05
36	0x382ecccf	4.1675576e-05
37	0x38486bfe	4.778429e-05
38	0x3853e6d4	5.0521296e-05
39	0x3853d37f	5.050329e-05
40	0x384959c3	4.800573e-05
41	0x3866a7f8	5.4992706e-05
42	0x383b607c	4.4674132e-05
43	0x3832c5a9	4.2622592e-05
44	0x38573b1d	5.1315048e-05
45	0x385611fa	5.1038318e-05
46	0x3847ca80	4.763389e-05
47	0x3836aecd	4.3554977e-05
48	0x376c2021	1.4074177e-05
49	0xb8a2b2e6	-7.7580844e-05
50	0xb70cd654	-8.394552e-06
51	0x38339c5d	4.282255e-05
52	0x3842117d	4.626949e-05
53	0x38572b81	5.130051e-05
54	0x38443e1b	4.678788e-05
55	0x38498a8a	4.805116e-05
56	0x38574a01	5.1328916e-05
57	0x3843d4e1	4.6689882e-05
58	0x384af47f	4.8388258e-05
59	0x3843fd41	4.6727484e-05
60	0x3849925a	4.8058435e-05
61	0x382d5741	4.1327676e-05
62	0x3859506b	5.1811727e-05
63	0x38457497	4.7077043e-05
64	0x38283a4c	4.0108614e-05
65	0x381b3bb7	3.7010494e-05
66	0x383207eb	4.244588e-05
67	0x382fcf06	4.1916057e-05
68	0xb8a76387	-7.981719e-05
69	0xb7131396	-8.766443e-06
70	0x384e5182	4.9190137e-05
71	0x3870537b	5.7298206e-05
72	0x38760634	5.8656748e-05
73	0x385d12f0	5.2708143e-05
74	0x38372fd2	4.3675136e-05
75	0x38077294	3.2293217e-05
76	0x36206b81	2.3904433e-06
77	0xb86bc300	-5.6209974e-05
78	0xb873a883	-5.8092653e-05
79	0x37e5978f	2.7369502e-05
80	0x3843c63f	4.6676254e-05
81	0x3858585e	5.158071e-05
82	0x3836408b	4.345229e-05
83	0x38366ddb	4.3494492e-05
84	0x383aaee7	4.4508746e-05
85	0x3859a340	5.188887e-05
86	0x3844945b	4.686821e-05
87	0x382e05e1	4.1490308e-05
88	0x3845521e	4.7044938e-05
89	0x38418afa	4.6144218e-05
90	0xb7881734	-1.6223268e-05
91	0xb69b434f	-4.6271957e-06
92	0x383a1803	4.436822e-05
93	0x383fa5f0	4.569249e-05
94	0x3849a285	4.8073493e-05
95	0xb85482e3	-5.0666637e-05
96	0xb8475f76	-4.7534202e-05
97	0xb8484056	-4.7743633e-05
98	0xb7b34af9	-2.1373375e-05
99	0xb8d9e4e5	-0.00010390001
100	0x3916996f	0.00014362273
101	0x3a07be7b	0.0005178225
102	0x3a2fc688	0.00067053037
103	0x39505114	0.0001986663
104	0xb7aa2602	-2.0283278e-05
105	0xb87fdb87	-6.100119e-05
106	0xb54bac57	-7.587418e-07
107	0x384ba350	4.8551068e-05
108	0x3858686d	5.1595667e-05
109	0x384a77bc	4.8272064e-05
110	0x383ebb8f	4.5474208e-05
111	0x385722c1	5.129236e-05
112	0x3836322b	4.3438904e-05
113	0x384412c1	4.6747507e-05
114	0x3849670d	4.8018108e-05
115	0x385b2e52	5.2256808e-05
116	0x3857cb69	5.1449435e-05
117	0x38738e6f	5.8068366e-05
118	0xb7316d25	-1.0575434e-05
119	0xb7a221c4	-1.9327628e-05
120	0x375cfd80	1.3172044e-05
121	0xb6b7d3e8	-5.478494e-06
122	0x3969cd6d	0.00022297139
123	0x39370b61	0.00017456479
124	0xb8654343	-5.4660497e-05
125	0x38a10d1c	7.67952e-05
126	0xb8647f4c	-5.447799e-05
127	0xb8a5d6fa	-7.9078556e-05
128	0xb8bfa6d4	-9.138664e-05
129	0x38f7eef0	0.000118223834
130	0x39bec637	0.00036387306
131	0x399a541b	0.00029435832
132	0x38a10112	7.6772776e-05
133	0x38bfed29	9.151764e-05
134	0x3961082f	0.00021460721
135	0x391f7ac2	0.00015209152
136	0x388d6578	6.742304e-05
137	0x381c0be9	3.720439e-05
138	0x3844fd7e	4.6966125e-05
139	0x38393e15	4.4165256e-05
140	0x38410df1	4.602777e-05
141	0x3854bdfa	5.072167e-05
142	0x38443adb	4.6784855e-05
143	0x384157bc	4.6096495e-05
144	0x379b607f	1.8522374e-05
145	0x37a34b24	1.9466104e-05
146	0xb6d33271	-6.294162e-06
147	0xb843b6dd	-4.6661928e-05
148	0xb9375bb1	-0.00017486398
149	0xbc4d1a90	-0.01251854
150	0xbbd6ac82	-0.0065513263
151	0xbba1307e	-0.004919111
152	0xb9fa8147	-0.00047780035
153	0xbca8a98c	-0.020588659
154	0xba8df722	-0.0010831098
155	0xba83edfe	-0.0010065434
156	0xb8ed38e8	-0.0001131164
157	0xb986eb7b	-0.00025733918
158	0xba8cf7a8	-0.001075496
159	0xbac2e98d	-0.0014870629
160	0xba99c3b1	-0.0011731294
161	0x39251768	0.00015744346
162	0x395b799a	0.00020930768
163	0x3948a9bb	0.00019136716
164	0x3958888f	0.00020650237
165	0x383c8176	4.4943263e-05
166	0x3836dac2	4.3595915e-05
167	0x3845ef7e	4.7191505e-05
168	0x38415894	4.609728e-05
169	0x38470f01	4.745927e-05
170	0x38370b09	4.3640877e-05
171	0x3830ce8b	4.2154028e-05
172	0xb848b59e	-4.785286e-05
173	0xb8645767	-5.4440836e-05
174	0x393e14f9	0.00018127625
175	0x3a0a22e9	0.0005269484
176	0x397d9aa6	0.00024185571
177	0xbc42c5fd	-0.011888024
178	0x3955e9e5	0.00020400395
179	0x39ca06b1	0.00038533428
180	0x38c4d5e8	9.3858514e-05
181	0x38d423f9	0.00010115648
182	0xb9cd1ba2	-0.00039121235
183	0xb89ae100	-7.385202e-05
184	0xb99b5e62	-0.00029634224
185	0xbd7e8261	-0.062136058
186	0xb97379bc	-0.00023219635
187	0xba3ef254	-0.00072840345
188	0xba3f98ed	-0.00073088595
189	0xbacd6fa3	-0.0015673529
190	0xb985228b	-0.00025393473
191	0xb8760f05	-5.866496e-05
192	0x39944102	0.00028277194
193	0x378e1f9a	1.6942435e-05
194	0x3848229d	4.7715952e-05
195	0x383dcb47	4.525043e-05
196	0x38423a28	4.6307367e-05
197	0x385b9628	5.2353513e-05
198	0x38869a4f	6.41836e-05
199	0x38908eac	6.89303e-05
200	0xb8a4bfc5	-7.855849e-05
201	0x368acef8	4.136815e-06
202	0x3a0b79c2	0.00053205725
203	0x3a2a3aeb	0.0006493765
204	0x3a3129cf	0.0006758244
205	0x39130efa	0.00014024592
206	0x3da2ddfa	0.07952495
207	0x390115cf	0.00012310523
208	0xb66e3cb6	-3.5500102e-06
209	0x3c978733	0.018497085
210	0x3a462855	0.00075591105
211	0x391c88e7	0.0001492832
212	0x39e46373	0.00043561644
213	0xb98b02ef	-0.00026514332
214	0xb9a7b500	-0.00031987578
215	0xbdbee643	-0.09321263
216	0xba08bf04	-0.0005216452
217	0xbb000ccd	-0.001953888
218	0xbba21bbf	-0.0049471552
219	0xb9b3a03b	-0.00034260922
220	0x3a188309	0.00058178656
221	0x39d79b65	0.00041123774
222	0x3894450e	7.0700524e-05
223	0x38647b88	5.4474483e-05
224	0x383645ab	4.3457065e-05
225	0x387927a1	5.9403133e-05
226	0x38a72745	7.970495e-05
227	0xb784564f	-1.5775817e-05
228	0xb9077f58	-0.00012922043
229	0xba0a09f2	-0.0005265764
230	0xb814f4f4	-3.551408e-05
231	0xb8f5e5c6	-0.00011725309
232	0xba0fbc48	-0.0005483073
233	0xba4a09e4	-0.00077071623
234	0xba20cf32	-0.000613439
235	0xba11ecda	-0.00055666047
236	0xba4d92b8	-0.0007841992
237	0xb9db3df3	-0.0004181709
238	0x3c20d038	0.009815268
239	0x3ca09fcc	0.019607447
240	0x3c5f4f1a	0.013629699
241	0xb8e21b8e	-0.00010781652
242	0xba3fe372	-0.0007319964
243	0xb9b61820	-0.0003473172
244	0xba27a9e8	-0.00063958624
245	0xbaab0426	-0.0013047501
246	0xb959233c	-0.00020707858
247	0x39318c6b	0.00016932345
248	0x39a239de	0.00030942162
249	0xb920d7b9	-0.00015339152
250	0x38596d80	5.183881e-05
251	0x385590bb	5.0917948e-05
252	0x38330af5	4.268713e-05
253	0x383af422	4.4573222e-05
254	0x38474374	4.7508118e-05
255	0x38120ad7	3.4819208e-05

layers.2.bias f4 [100]
0	0x3de6c0f1	0.112672694
1	0xbcb6e664	-0.022326656
2	0x3d59abbb	0.05314229
3	0x3e0badff	0.13640593
4	0xbe1c098f	-0.15238021
5	0x3d5e6d21	0.054303292
6	0x3d27651d	0.040867914
7	0x3d58f65a	0.052969314
8	0x3d5bff03	0.053709995
9	0x3d5acd53	0.05341847
10	0xbd81564e	-0.063152894
11	0xbe0afdbc	-0.13573354
12	0xbcfb7ccb	-0.030699154
13	0x3d5a06e9	0.053229246
14	0xbb4dc2fd	-0.003139674
15	0xbd069264	-0.032854453
16	0x3d5f76ba	0.054556586
17	0xbee35a85	-0.44404998
18	0x3d57fd72	0.05273194
19	0x3eb6b55d	0.35685244
20	0x3d5bdaea	0.05367557
21	0x3da6f998	0.08153075
22	0xbdde3e60	-0.10851741
23	0x3d5dbbc6	0.054134153
24	0xbd94e772	-0.07270707
25	0xbddc4ace	-0.10756455
26	0xbc214607	-0.009843356
27	0x3eff7741	0.4989567
28	0x3e539aaf	0.20664476
29	0x3e34322c	0.17597264
30	0xbeb7caed	-0.35897008
31	0x3d5ac087	0.053406265
32	0x3d596674	0.053076223
33	0x3e61a2c2	0.22034743
34	0xbee055f9	-0.43815592
35	0x3da6fcce	0.081536874
36	0x3d5e8ddf	0.054334518
37	0xbd54dae8	-0.051966578
38	0x3d5c82cd	0.05383568
39	0x3e2f6099	0.17126693
40	0x3e50d4de	0.20393702
41	0xbe3d326e	-0.18476269
42	0xbc25664f	-0.010095193
43	0xbe8dbe0d	-0.2768406
44	0x3e9ec1eb	0.31007323
45	0xbda224eb	-0.07917198
46	0x3d5d2aad	0.053995777
47	0x3d583196	0.052781664
48	0x3d6230c1	0.055222277
49	0xbe1bd12d	-0.15216513
50	0x3e5531c6	0.20819768
51	0x3caedb84	0.021344908
52	0x3d5d4790	0.054023325
53	0xbeb3c028	-0.3510754
54	0x3c24a3b6	0.010048797
55	0xbd6bbaae	-0.05755108
56	0x3d5e64ec	0.054295465
57	0x3e88309e	0.26599592
58	0xbdf03f38	-0.11730808
59	0xbdc8263f	-0.0977292
60	0xbdb20189	-0.08691699
61	0x3e97f86d	0.2968172
62	0x3c648751	0.013948278
63	0x3ea14bf4	0.3150326
64	0x3f0aca29	0.5421472
65	0x3dbe673f	0.092970364
66	0x3d5f2eaf	0.05448788
67	0x3d59754a	0.05309037
68	0xbd520d6b	-0.051282328
69	0x3d570b11	0.052500788
70	0x3d5a7b3a	0.053340174
71	0x3d558590	0.05212933
72	0x3d5aff46	0.053466104
73	0xbe944881	-0.28961566
74	0x3e1c1836	0.1524361
75	0x3d55f838	0.052238673
76	0x3b86f553	0.0041186004
77	0x3d5c09ce	0.053720288
78	0xbe1f5273	-0.15558796
79	0x3d5cee23	0.053938042
80	0x3d5e7060	0.054306388
81	0xbd408c12	-0.04700858
82	0x3eaff1a0	0.34364033
83	0xbe1ae95d	-0.15128084
84	0x3d3e2aad	0.046427418
85	0x3daf81e8	0.085696995
86	0xbd637c8b	-0.055538695
87	0xbd7ba6af	-0.06143826
88	0xbd9b87be	-0.0759425
89	0x3d5f6811	0.054542605
90	0xbc7e396b	-0.015516619
91	0xbd5321c7	-0.051545884
92	0x3d56b943	0.052422773
93	0xbd3e4d72	-0.046460576
94	0x3d598473	0.05310483
95	0xbd118cf1	-0.035534803
96	0x3d5c0a07	0.0537205
97	0xbcd4a728	-0.025958613
98	0x3d540377	0.051761117
99	0x3e6fbc71	0.23411728

layers.4.weight f4 [100, 100]
0	0x3e106f04	0.14104849
1	0x36bbdb29	5.598548e-06
2	0xb71be58a	-9.292164e-06
3	0xb9b6ce09	-0.00034867253
4	0xb8ab886e	-8.1793274e-05
5	0xb7c152f2	-2.3046017e-05
6	0xb90eae8c	-0.00013607199
7	0xb79596e6	-1.7832452e-05
8	0xb696dc21	-4.4959747e-06
9	0xb71eba87	-9.460963e-06
10	0xb7ad63a8	-2.0669613e-05
11	0x371f7ea9	9.506629e-06
12	0xbe229c2a	-0.15879884
13	0x351b9aeb	5.7967435e-07
14	0xb9cebf38	-0.0003943385
15	0x34f921dc	4.64045e-07
16	0xb75ffaab	-1.3350199e-05
17	0xb930f8a7	-0.00016877298
18	0xb700a874	-7.668616e-06
19	0x38e6f280	0.00011012424
20	0xb7664ff1	-1.3727681e-05
21	0x3e2e1b86	0.17002687
22	0xbeb72013	-0.35766658
23	0xb68f45e9	-4.2698707e-06
24	0xb8dc3480	-0.000105001964
25	0x3da90ce3	0.08254411
26	0xb6c85d15	-5.9713007e-06
27	0xbbc9c44e	-0.0061574345
28	0xb9bf5d39	-0.00036499815
29	0xbec003f4	-0.37503016
30	0xba0fe302	-0.0005488844
31	0xb7285e4d	-1.0035536e-05
32	0xb6a838f1	-5.013419e-06
33	0xb8540eba	-5.0558454e-05
34	0xb51190cb	-5.422741e-07
35	0x37e8a463	2.7733104e-05
36	0xb734d1e6	-1.0777707e-05
37	0xb763ef6d	-1.3586e-05
38	0xb79a0403	-1.8360099e-05
39	0xb7b02470	-2.0997802e-05
40	0xb96e4788	-0.00022724096
41	0xb6d32e7d	-6.293702e-06
42	0x3d5bc37d	0.05365323
43	0x3a01756f	0.00049384584
44	0x3d8bdf19	0.06829662
45	0x3ef84962	0.48493487
46	0xb4fcf539	-4.711708e-07
47	0xb4154ea8	-1.3905321e-07
48	0xb676dcd5	-3.6785398e-06
49	0xb5d8501f	-1.6116572e-06
50	0xbe921399	-0.28530577
51	0x39c712cd	0.00037970245
52	0xb634e3ae	-2.6954617e-06
53	0x39a6b0e1	0.00031793772
54	0xbe49eaef	-0.19718526
55	0xb70abd04	-8.26945e-06
56	0xb737e511	-1.0960984e-05
57	0xb9ccbab0	-0.00039049005
58	0xb5e1e7b0	-1.6831236e-06
59	0xb6eb512c	-7.0129954e-06
60	0x3ee885d2	0.45414597
61	0xbc0ad0bd	-0.008472619
62	0xbe2d81ba	-0.16944018
63	0x3e17438f	0.14771865
64	0xbf37756a	-0.71663535
65	0x379f7ebf	1.9013298e-05
66	0xb79baa4e	-1.8556744e-05
67	0xb5f855ec	-1.8502446e-06
68	0xb84f0585	-4.9357786e-05
69	0xb591a884	-1.0852386e-06
70	0xb6972909	-4.504928e-06
71	0xb79c50e4	-1.8634317e-05
72	0xb76ec148	-1.4230907e-05
73	0x3e0810a9	0.13287605
74	0x39006a08	0.00012246531
75	0xb6e5e4f2	-6.8513846e-06
76	0xb9e2f9d1	-0.00043292207
77	0xb6ace201	-5.1523098e-06
78	0x3dbff51c	0.09372923
79	0xb68d5162	-4.2116017e-06
80	0xb7492754	-1.198969e-05
81	0x37168428	8.971467e-06
82	0xb9ea9792	-0.00044744887
83	0xbd14ace1	-0.036297683
84	0x3d402bb7	0.04691669
85	0xb96ffddf	-0.0002288739
86	0xb6b4ff5c	-5.394146e-06
87	0x35a9287d	1.2603265e-06
88	0x365a4aef	3.2528148e-06
89	0xb7ec1954	-2.8145187e-05
90	0x36f2e74d	7.239089e-06
91	0x3e982c95	0.29721513
92	0xb719f6fc	-9.177016e-06
93	0x39351137	0.00017267918
94	0xb7763c83	-1.4676832e-05
95	0x3e93b873	0.2885166
96	0xb6fd3efc	-7.54732e-06
97	0x38b1e160	8.481997e-05
98	0x3f2d371b	0.6766221
99	0xbbe31745	-0.006930264
100	0xb8015f6e	-3.0844873e-05
101	0xb6d5324e	-6.353751e-06
102	0x36b3448f	5.342597e-06
103	0xbe1e110a	-0.15436187
104	0x34156f9f	1.3917314e-07
105	0xb83e2f77	-4.5343735e-05
106	0x39d0953c	0.0003978404
107	0xb67e4e58	-3.7894551e-06
108	0xb7e52e00	-2.7320348e-05
109	0xb7ee7679	-2.8426979e-05
110	0x3a339152	0.00068499625
111	0xb61d8a2f	-2.3475257e-06
112	0xbc55fd1d	-0.013060835
113	0xb83d03f1	-4.5064782e-05
114	0x3eb27aa7	0.348592
115	0xb75cb2c1	-1.3154641e-05
116	0xb83007ea	-4.196904e-05
117	0xb94704c2	-0.00018979891
118	0x3733f4a9	1.0726196e-05
119	0x394fd167	0.00019819067
120	0x369ed447	4.7334793e-06
121	0x38153831	3.55767e-05
122	0xb93ec858	-0.00018194446
123	0xb817e1e1	-3.621157e-05
124	0xb906aa86	-0.00012842761
125	0x3a18c7d3	0.0005828116
126	0xb58603bd	-9.984866e-07
127	0xbe8f9a9d	-0.28047648
128	0xbb39399a	-0.0028263093
129	0x398185b2	0.00024704408
130	0x3ee94e38	0.4556749
131	0x37313d6f	1.0564326e-05
132	0xb83497e8	-4.3056818e-05
133	0xb99a65db	-0.00029449057
134	0x36adaff1	5.176284e-06
135	0xb96f622f	-0.00022829392
136	0xb7aab56f	-2.0350066e-05
137	0x37ea1bc0	2.7907896e-05
138	0x363afec6	2.7864457e-06
139	0xb8b363b1	-8.553954e-05
140	0x3e1d9f41	0.15392782
141	0xb7275fc9	-9.976277e-06
142	0xbd724772	-0.059150167
143	0x3928ff2d	0.00016116789
144	0xbd9774cd	-0.07395325
145	0x3d414e7f	0.047194
146	0xb766357c	-1.3721521e-05
147	0xb88029fe	-6.111337e-05
148	0x37200602	9.538142e-06
149	0x3766b826	1.3751944e-05
150	0xbbf2cd58	-0.007409733
151	0x3e1a3eb3	0.1506298
152	0x36090449	2.0417085e-06
153	0x371f54e9	9.496908e-06
154	0xbcd5b792	-0.02608851
155	0xb7e4ae40	-2.726086e-05
156	0xb869fd72	-5.578757e-05
157	0x399593ea	0.000285297
158	0xb71bb456	-9.280708e-06
159	0x371e42c1	9.433076e-06
160	0x3e05051e	0.12990233
161	0x38d869ec	0.00010319412
162	0xb84bf03b	-4.8622704e-05
163	0xb9c6abe8	-0.00037893583
164	0x3b8638bd	0.004096119
165	0x39865aa9	0.0002562602
166	0xb5ecc237	-1.7639894e-06
167	0xb70bbbb1	-8.328746e-06
168	0xb919be2b	-0.0001466206
169	0xb7c0abc2	-2.2968165e-05
170	0xb836b8c6	-4.3564265e-05
171	0xb87fccbd	-6.0987415e-05
172	0x36fd6004	7.5511653e-06
173	0x39954546	0.00028471107
174	0xb761d831	-1.3461381e-05
175	0xb82e75bc	-4.159448e-05
176	0xb50975fc	-5.1208167e-07
177	0x373f3386	1.1396483e-05
178	0xb7e9b881	-2.786168e-05
179	0xb7b908fe	-2.2057906e-05
180	0xb7590fe8	-1.2937911e-05
181	0xb776a3e4	-1.4700901e-05
182	0xbd2f3be9	-0.042781744
183	0xb86e2411	-5.677721e-05
184	0x38fcf482	0.000120618395
185	0xbd8e5ab0	-0.06950891
186	0xb7401610	-1.1449229e-05
187	0xb731df99	-1.06020825e-05
188	0xb69f0d15	-4.740092e-06
189	0x373f14ac	1.13893e-05
190	0xb5da4805	-1.6263226e-06
191	0xb949bf86	-0.00019240202
192	0x3777249c	1.4730871e-05
193	0x3f00cb28	0.5030999
194	0xb83cb45d	-4.499067e-05
195	0x3e30cdfe	0.1726608
196	0xb825b073	-3.9503397e-05
197	0xba99e3a2	-0.0011740813
198	0x38f5f764	0.000117285905
199	0x39406daf	0.00018351407
200	0x39514428	0.00019957183
201	0xb613582e	-2.1956034e-06
202	0xb8186d6b	-3.6341527e-05
203	0xba1fb687	-0.00060925673
204	0x393c1cd3	0.00017939815
205	0xb8934db3	-7.023979e-05
206	0xba907fd1	-0.001102442
207	0xb84b980a	-4.854057e-05
208	0xb7820b5e	-1.55025e-05
209	0xb823dc2b	-3.9067276e-05
210	0x384e3038	4.9159135e-05
211	0x37be5428	2.2688953e-05
212	0xbd7f2fc1	-0.0623014
213	0xb76c4957	-1.4083772e-05
214	0x39d35d34	0.00040314498
215	0x35db3b8e	1.6334104e-06
216	0xb80ce8d7	-3.359545e-05
217	0xbd00ce93	-0.031447005
218	0xb7be837d	-2.2710994e-05
219	0x37688ac3	1.3860586e-05
220	0xb831a7d5	-4.2356394e-05
221	0x3992549f	0.00027910338
222	0xb933147d	-0.00017078403
223	0xb8318185	-4.2320713e-05
224	0xbc467453	-0.012112695
225	0x391a36c6	0.00014706989
226	0x361e4f90	2.3590146e-06
227	0xb82ee622	-4.169916e-05
228	0x3f144a5c	0.57925963
229	0xbadd1622	-0.0016867558
230	0x39ae29eb	0.00033219098
231	0xb8136c31	-3.5148292e-05
232	0xb8014dd6	-3.0828487e-05
233	0x39a43ce1	0.00031325876
234	0xb612d46d	-2.1879343e-06
235	0xb9be57d4	-0.0003630506
236	0x354cdeea	7.6320305e-07
237	0xb6599f3d	-3.2428209e-06
238	0xb8610e3f	-5.3657448e-05
239	0x3799f4b4	1.835297e-05
240	0x39447b2b	0.000187379
241	0x35132aac	5.4823863e-07
242	0x3cd87b54	0.026425995
243	0xb90bd27f	-0.00013334489
244	0x38ef2012	0.00011402382
245	0x3a2dca4c	0.0006629571
246	0xb7a63d03	-1.9817153e-05
247	0xb82ae0c4	-4.0740488e-05
248	0xb6c38079	-5.826409e-06
249	0xb6a056b0	-4.7784633e-06
250	0x3916e666	0.00014390945
251	0xb9c992d0	-0.0003844709
252	0xb78657ce	-1.6014932e-05
253	0xb983bb57	-0.00025125846
254	0xb7ba0446	-2.2174918e-05
255	0xb667f6a4	-3.4565246e-06

layers.4.bias f4 [100]
0	0x3e0a88b3	0.13528709
1	0xbd962222	-0.07330729
2	0x3e8768bc	0.26447093
3	0x3d6a9b1b	0.057276826
4	0x3e566165	0.2093559
5	0x3e03fca0	0.12889338
6	0x3eb22971	0.34797242
7	0x3ed9ea68	0.4256165
8	0x3ebe8825	0.37213245
9	0xbe8dbdcf	-0.27683875
10	0xbe4dd606	-0.20101175
11	0xbc9eca82	-0.019383673
12	0x3eefc750	0.4683175
13	0xbdb26c77	-0.08712094
14	0x3d2b8129	0.041871224
15	0x3e4ef71d	0.20211454
16	0x3d7de7fb	0.061988812
17	0xbbe162f5	-0.0068782517
18	0x3e240cb1	0.16020466
19	0x3bc7e8ff	0.0061007733
20	0xbe50dda8	-0.20397055
21	0x3e169bb8	0.1470784
22	0x3e3a5e6f	0.18200086
23	0x3ec438fc	0.38324726
24	0x3ec6d6ea	0.3883584
25	0xbdbd8452	-0.09253754
26	0xbe3eff4d	-0.18652077
27	0xbdaa807d	-0.083252884
28	0x3d94bd94	0.07262722
29	0xbec42a82	-0.3831368
30	0x3d772b26	0.060343884
31	0xbe3a1350	-0.1817143
32	0x3ebcb91c	0.36859977
33	0xbe8bad77	-0.2728078
34	0x3e93d6dd	0.28874865
35	0xbe5f708a	-0.21820274
36	0xbd8a1344	-0.06741956
37	0x3edaa14e	0.4270119
38	0x3e81dea9	0.2536519
39	0xbc57ec7a	-0.013178939
40	0x3d75538a	0.059894122
41	0xbdbc0049	-0.09179742
42	0x3ea5bb32	0.3236938
43	0x3dc90a98	0.09816474
44	0x3e5b70c5	0.21429737
45	0xbd54ce13	-0.05195434
46	0x3e87fb1b	0.26558766
47	0x3f159bda	0.58440936
48	0x3d87311a	0.06601162
49	0xbd913805	-0.07090763
50	0x3d710ae7	0.058848288
51	0xbeb131cf	-0.34608313
52	0x3f16a562	0.58846104
53	0x3f2839c7	0.6571316
54	0x3f1453e8	0.5794053
55	0x3d6ff3bd	0.058582056
56	0xbbd71174	-0.00656336
57	0x3ea1e63c	0.31620967
58	0x3f24d6d6	0.64390314
59	0xbe15017d	-0.14551349
60	0xbe2f085d	-0.17093034
61	0xbbbe3603	-0.0058047785
62	0xbdc8a293	-0.097966336
63	0x3cd8972d	0.026439274
64	0x3edb2c72	0.42807347
65	0x3e659670	0.22420669
66	0xbcceba9b	-0.025235465
67	0xbb99694e	-0.0046817428
68	0x3eec993b	0.46210656
69	0x3df4db3a	0.11955877
70	0xbde30426	-0.110847756
71	0x3dcd9f8b	0.10040196
72	0x3ee1ed58	0.4412639
73	0x3e8dc788	0.27691293
74	0xbd04ccad	-0.032421757
75	0x3e863e06	0.26219195
76	0xbbcb48ba	-0.006203738
77	0xbdc89ba7	-0.09795313
78	0xbd4ca7dc	-0.04996477
79	0x3db710b2	0.08938731
80	0x3d70f87f	0.058830734
81	0x3e48bcdd	0.19603296
82	0x3d6f1608	0.05837062
83	0x3ed3fdba	0.41404516
84	0x3e6d2fed	0.23162813
85	0xbdee3d96	-0.1163284
86	0xbe1e494c	-0.15457648
87	0xbcc3ee36	-0.023917299
88	0x3e3f83a0	0.18702555
89	0x3f087101	0.5329743
90	0x3eb1a9ba	0.34699804
91	0xbd5cedaa	-0.05393759
92	0x3d8e30aa	0.06942876
93	0xbd685998	-0.05672607
94	0x3e9cebf8	0.3064878
95	0x3e458548	0.19289124
96	0xbe0443f9	-0.12916555
97	0x3ceed59b	0.02915459
98	0xbe05f1ca	-0.13080516
99	0x3d715fe5	0.058929343

layers.6.weight f4 [10, 100]
0	0xb7fd86e4	-3.0222764e-05
1	0xb8f0db9f	-0.000114849994
2	0xbd9f8220	-0.07788491
3	0x370397c5	7.843545e-06
4	0x3e892271	0.2678409
5	0xb90c4540	-0.00013377238
6	0xb92d672d	-0.00016537002
7	0x383adc48	4.455101e-05
8	0xb881e420	-6.193691e-05
9	0xbf46dbd8	-0.77679205
10	0x3f3af8f9	0.7303615
11	0x378b4802	1.6603622e-05
12	0x3c6ff7a0	0.014646441
13	0xb9244215	-0.00015664876
14	0x38ff835d	0.00012183816
15	0xbd4a3706	-0.04936888
16	0x3789f55e	1.644593e-05
17	0xb73ad4c7	-1.1136005e-05
18	0x38a9862f	8.0835416e-05
19	0xbf64ca53	-0.8937122
20	0xb8204d13	-3.8218754e-05
21	0xba7ba3c0	-0.0009599291
22	0xbed0371c	-0.40667045
23	0x38e5b72c	0.00010953689
24	0xb7be8543	-2.271182e-05
25	0xbf9d858c	-1.230638
26	0xbde3f096	-0.111298725
27	0xb9d3d5ca	-0.0004040434
28	0x38b43ca6	8.5943655e-05
29	0x36ae37db	5.1921065e-06
30	0x37b7408e	2.184536e-05
31	0x38b96b40	8.841464e-05
32	0xbe811dd0	-0.25218058
33	0x3f28c973	0.6593239
34	0xbf956870	-1.1672497
35	0xbdb0d772	-0.08634843
36	0xb73f2ee4	-1.1395405e-05
37	0x3e9c0d76	0.3047902
38	0x3918499a	0.00014523268
39	0x356f8e7e	8.924179e-07
40	0x36ab4939	5.1047214e-06
41	0xb6ba7c61	-5.5577116e-06
42	0xb9c65bdb	-0.0003783394
43	0xbedbbdc7	-0.42918226
44	0xb79cd6ef	-1.8696735e-05
45	0x36d4c952	6.341529e-06
46	0xb8c0c6a6	-9.1922746e-05
47	0xb9321d79	-0.00016986382
48	0x378603cd	1.5975815e-05
49	0x371f963f	9.51212e-06
50	0x3897607d	7.2182134e-05
51	0x393c4246	0.00017953766
52	0xbf134619	-0.57528836
53	0xbe0f9b91	-0.14024188
54	0x3e8b552e	0.27213424
55	0x36b5b436	5.4151997e-06
56	0xb7253b84	-9.848623e-06
57	0xb9e416ac	-0.0004350444
58	0xbcb69562	-0.022288028
59	0xb9e569c4	-0.00043757085
60	0x3ed77492	0.42081124
61	0x375a237a	1.3002073e-05
62	0xb5496ec3	-7.5039515e-07
63	0xb9108088	-0.00013780792
64	0x3d59aceb	0.053143423
65	0x39206ae0	0.00015298603
66	0xb6885f5b	-4.0642167e-06
67	0x3624a5c2	2.4534388e-06
68	0xbf89d3b4	-1.0767732
69	0x37d9204c	2.5883455e-05
70	0x35c4d6d8	1.4665666e-06
71	0x3e1bbd7f	0.15209006
72	0xbd97a4c5	-0.07404474
73	0x3e329645	0.17440136
74	0xb71ffe5a	-9.536359e-06
75	0xb87c0ff0	-6.0096325e-05
76	0x36e956e1	6.954055e-06
77	0x3e99738a	0.29970962
78	0x36ac99dc	5.143911e-06
79	0x382d76c5	4.1357027e-05
80	0x371122d9	8.650787e-06
81	0x37a6758d	1.9843481e-05
82	0x376230e5	1.3482034e-05
83	0xb98678c7	-0.00025648458
84	0x3910ea66	0.0001382023
85	0x3e806c91	0.2508283
86	0xb68ef6a5	-4.260643e-06
87	0xb700a696	-7.668181e-06
88	0x3e1fa29f	0.15589379
89	0xbdb5a240	-0.08868837
90	0x3e4b1956	0.19833884
91	0x36a37c76	4.8722677e-06
92	0x385dc1e2	5.2871073e-05
93	0xb7282a40	-1.0023417e-05
94	0xb95675bb	-0.00020452488
95	0xbe40f984	-0.18845183
96	0xb8040b58	-3.1481817e-05
97	0xbf259173	-0.6467506
98	0x3ccc3846	0.024929177
99	0x37c3a592	2.3322911e-05
100	0x3e9cad19	0.30600813
101	0x3e6fcbf1	0.23417641
102	0x3dde1b15	0.10845009
103	0x37122dfa	8.712983e-06
104	0xbf147e45	-0.5800517
105	0xbe52cf74	-0.2058695
106	0xb8ce9064	-9.84974e-05
107	0x3e8999c7	0.26875135
108	0xb7f42b6e	-2.910729e-05
109	0x3eab31da	0.3343647
110	0x392c0dd3	0.00016408348
111	0x370c2e26	8.355395e-06
112	0xbec299e3	-0.3800803
113	0x3c8d432c	0.017243944
114	0xbe6b46f1	-0.22976281
115	0xb88b153f	-6.631994e-05
116	0x372b1539	1.01973355e-05
117	0xb6ae8711	-5.201328e-06
118	0xb7befd9a	-2.2767857e-05
119	0x3e73d59a	0.23811951
120	0xbd61ac16	-0.055095755
121	0xb80185ab	-3.0880485e-05
122	0xb93ef3fa	-0.000182107
123	0xb810b00e	-3.449624e-05
124	0x3814a288	3.543732e-05
125	0x3e2a1d3b	0.16612713
126	0xb746af80	-1.1842581e-05
127	0xb83c4743	-4.488906e-05
128	0xb82338a8	-3.8914994e-05
129	0x3eb896b7	0.36052486
130	0xb79749e3	-1.8035009e-05
131	0x3d4e3aa0	0.050348878
132	0xbea2cdc2	-0.31797606
133	0x3d848e4a	0.06472452
134	0xbdc3c917	-0.09559839
135	0x3ebe7402	0.37197882
136	0x37172aa9	9.010234e-06
137	0xba0549f1	-0.00050845655
138	0xb846e7cd	-4.742276e-05
139	0xb4113029	-1.3521698e-07
140	0xb7b5f853	-2.1692516e-05
141	0xb4cc14b6	-3.801303e-07
142	0xbf0f8a6b	-0.56070584
143	0x354ea04c	7.697424e-07
144	0xbc848565	-0.016176889
145	0xb7033373	-7.820187e-06
146	0xb7d7970f	-2.570034e-05
147	0x36db224b	6.530701e-06
148	0xb708dc60	-8.157542e-06
149	0xb8098dc6	-3.2795382e-05
150	0xbf3f2d28	-0.7467828
151	0x3d9f84ef	0.07789027
152	0xbf5336df	-0.825056
153	0xbdc37254	-0.09543291
154	0xbe772ee0	-0.24138975
155	0xb7a56904	-1.9718434e-05
156	0xb73c20a5	-1.1213274e-05
157	0xb7974d33	-1.8036551e-05
158	0xb9da9479	-0.0004169082
159	0xbc20db7a	-0.009817952
160	0xb89ae426	-7.385788e-05
161	0xb648ec47	-2.9939854e-06
162	0x36c72bc6	5.935758e-06
163	0xb96c8fa9	-0.00022560231
164	0x3e219d5b	0.15782683
165	0xb7c3f65e	-2.3360535e-05
166	0xb71e4be1	-9.435201e-06
167	0x36bd6501	5.6443973e-06
168	0xb983a3a1	-0.0002510818
169	0xb853577a	-5.038779e-05
170	0xb73ebab6	-1.13683545e-05
171	0xb9cf2b06	-0.00039514172
172	0x3e2422fe	0.16028973
173	0xb823cc5a	-3.9052546e-05
174	0xb6cb002f	-6.049893e-06
175	0xbf409a57	-0.75235504
176	0xb6f2dd0b	-7.237895e-06
177	0xb88ee824	-6.814327e-05
178	0xb6cadcbc	-6.045766e-06
179	0xb6ffc71e	-7.6227725e-06
180	0xb6a0778e	-4.7822896e-06
181	0xbcfa4005	-0.030548105
182	0x3767c007	1.3813383e-05
183	0xbea88d02	-0.3292008
184	0xb7520afb	-1.2519532e-05
185	0x3eec8559	0.46195486
186	0x36edb0f3	7.08375e-06
187	0x366e3f69	3.5501673e-06
188	0xba2a1b1f	-0.0006489027
189	0xb80d7b1f	-3.3731685e-05
190	0xba2cab86	-0.0006586838
191	0x371d5314	9.377272e-06
192	0xb83474e2	-4.30242e-05
193	0xbf8c656b	-1.096845
194	0xbf99fd18	-1.2030363
195	0x3f172243	0.59036654
196	0x3f42b580	0.760582
197	0x3ea34b26	0.3189327
198	0xbce668d9	-0.028126167
199	0x3629ce66	2.5303102e-06
200	0x3b0df0da	0.0021658451
201	0xbcb3111f	-0.02185875
202	0x3e34cd23	0.17656378
203	0xb71f1909	-9.4829675e-06
204	0xbf91a200	-1.1377563
205	0x39834413	0.00025036986
206	0x3de2f782	0.110823646
207	0xbf20e3ca	-0.6284758
208	0x3d9c0440	0.07617998
209	0xbe4ce213	-0.20008115
210	0x3e99e975	0.30060926
211	0x37b1900b	2.116712e-05
212	0x3c1ae118	0.009453081
213	0x3f135c04	0.5756228
214	0xb92d7f0a	-0.00016545891
215	0x3db3e396	0.08783643
216	0xb89d90c2	-7.5133066e-05
217	0x369ce027	4.675257e-06
218	0xb902056f	-0.0001239979
219	0xb8b056a1	-8.40847e-05
220	0x398cff04	0.00026892882
221	0xbe4b0cb0	-0.19829059
222	0x3a09b370	0.00052528735
223	0xb8d6a89f	-0.00010235723
224	0xbeec4620	-0.4614725
225	0x3e3d1dbc	0.18468374
226	0x3ea51806	0.3224489
227	0xb6b9ca90	-5.537011e-06
228	0xb8d90706	-0.000103486746
229	0xbf5138a4	-0.8172705
230	0xb8e60a0b	-0.00010969125
231	0xbf0c28db	-0.5474984
232	0xb7961b28	-1.7894039e-05
233	0x3c932221	0.01796061
234	0x3df5cc85	0.120019
235	0xbf166970	-0.58754635
236	0x374ab116	1.2081369e-05
237	0xbd5ab6eb	-0.0533971
238	0xb8ad5381	-8.264837e-05
239	0xb739dfd6	-1.1078975e-05
240	0xb8db5c2e	-0.000104599036
241	0xb6c811ee	-5.9625518e-06
242	0x39e92677	0.00044469882
243	0xbf8f2978	-1.118453
244	0x3889c3f8	6.569171e-05
245	0xb71f1c59	-9.483739e-06
246	0xb8a81be5	-8.01606e-05
247	0xbf21fc61	-0.63275725
248	0xb8e5466a	-0.000109326866
249	0xb738f13d	-1.1023422e-05
250	0x3f0ef136	0.5583681
251	0xb7bf4297	-2.2799983e-05
252	0xbe7769d2	-0.24161461
253	0xbebfed67	-0.3748581
254	0x3e6571d6	0.22406706
255	0xb9028c3e	-0.0001245001

layers.6.bias f4 [10]
0	0x3d2dddb8	0.042447776
1	0xbef30d20	-0.4747095
2	0x3dcd5d4a	0.10027559
3	0xbdc89b25	-0.097952165
4	0x3e648ce4	0.2231937
5	0xbe80373e	-0.25042146
6	0x3d982332	0.07428588
7	0xbe7c885b	-0.2466139
8	0x3eed9eb9	0.46410158
9	0x3dd84783	0.10560515
