mnist_nets/fc4.pt (torch_old, 400290 bytes, 8 tensors)

layers.2.weight f4 [100, 784]
000000 0d 91 8e b9 48 37 1f 38 e7 27 1d 38 24 cf 80 b9
       -0.00027192422 3.796004e-05 3.746888e-05 -0.00024568394
000010 c9 d9 63 b9 fa d1 15 38 04 bc 80 b9 e1 e2 80 b9
       -0.00021729538 3.5719924e-05 -0.00024554145 -0.000245831
000020 71 c1 7f b9 81 db 63 b9 ba e1 15 38 88 46 1f 38
       -0.00024390758 -0.00021730179 3.5734593e-05 3.797424e-05
000030 17 dc 40 b9 b1 2f 5c b9 82 b5 1a 38 11 3d 8f b9
       -0.00018392537 -0.00020998601 3.6885504e-05 -0.00027320583
000040 84 ca 23 38 ce cf 21 38 9e aa 80 b9 62 9d 80 b9
       3.9050836e-05 3.8578924e-05 -0.00024541182 -0.00024531322
000050 52 7d 15 38 5c b2 80 b9 1f 79 12 38 ab c2 80 b9
       3.5641082e-05 -0.0002454695 3.4921915e-05 -0.000245591
000060 af c2 80 b9 31 c1 80 b9 e3 9b 11 38 56 83 15 38
       -0.00024559113 -0.00024558 3.4715875e-05 3.5646684e-05
000070 f9 df 80 b9 5b 29 8a b9 01 2c 54 38 9b 2d 83 b9
       -0.00024580935 -0.00026352223 5.058572e-05 -0.00025020246
000080 27 31 83 b9 b8 ec 80 b9 c6 17 1c 38 df 49 62 37
       -0.00025022888 -0.00024590432 3.721544e-05 1.3487849e-05
000090 04 a6 7d b9 a4 f0 85 b9 aa 6f 3e b9 21 91 82 b9
       -0.00024189806 -0.00025547028 -0.0001816141 -0.00024903662
0000a0 04 ce 26 38 61 cd 2f b9 0b 6a 36 b9 c5 90 b3 37
       3.976935e-05 -0.0001676581 -0.00017396377 2.1405876e-05
0000b0 c8 ce 68 b9 b2 7d 3e b9 52 f2 83 b9 b3 09 4b 38
       -0.00022202276 -0.00018166637 -0.0002516681 4.8408005e-05
0000c0 de 5e bc 36 17 1c 41 37 7b 53 0f 37 2b 30 1d 38
       5.6138806e-06 1.1510237e-05 8.542901e-06 3.7476577e-05
0000d0 06 1c 54 38 bd 1d 1f 38 dc d0 15 38 e4 28 8a b9
       5.0570838e-05 3.793625e-05 3.5718884e-05 -0.00026351877
0000e0 db fb 80 b9 58 26 8a b9 c8 3b 1f 38 6d df 80 b9
       -0.0002460171 -0.0002634998 3.796423e-05 -0.00024580528
0000f0 06 a9 80 b9 80 63 11 38 8d 24 32 38 b1 c0 3a b9
       -0.00024539995 3.466336e-05 4.2472548e-05 -0.00017810125
000100 23 41 4a b8 42 e5 30 b9 a8 eb 25 b9 f4 2e 1d b9
       -4.8221216e-05 -0.00016870073 -0.00015823415 -0.00014990178
000110 c7 f3 d1 36 2a 6e 48 38 94 20 78 b9 ea 30 75 b9
       6.257065e-06 4.7786314e-05 -0.0002366326 -0.00023383243
000120 2f 70 87 b8 cc 2b b0 b8 5a 14 49 b9 db 43 e6 b9
       -6.4581975e-05 -8.400492e-05 -0.00019176435 -0.00043919575
000130 7d 7e 37 37 5e 44 8f b9 2a 2c 85 b9 75 a5 31 38
       1.09371e-05 -0.00027326023 -0.00025400642 4.2354182e-05
000140 98 9f 1c 38 ba 9b 14 38 56 cc 11 38 13 cd 80 b9
       3.734193e-05 3.543098e-05 3.4760997e-05 -0.00024566855
000150 52 f1 7f b9 55 e4 80 b9 12 ce 80 b9 0c 9b 07 38
       -0.00024408594 -0.00024584183 -0.00024567597 3.2330907e-05
000160 98 b8 2e b8 36 be 5e b9 7d 6e 54 b9 91 2c 3a b9
       -4.165675e-05 -0.00021242429 -0.00020259056 -0.00017754945
000170 61 65 8c 37 46 65 fe 37 08 51 26 b9 90 7d 46 b9
       1.6736509e-05 3.0326319e-05 -0.0001586118 -0.00018929527
000180 e2 40 33 38 08 47 21 b9 0c 30 87 38 b9 14 aa b7
       4.2737352e-05 -0.00015380618 6.446251e-05 -2.0275229e-05
000190 03 12 03 b9 62 0e 97 b8 d3 cf cd b9 e6 c0 a1 b9
       -0.00012499843 -7.20292e-05 -0.00039255488 -0.00030852034
0001a0 ef d5 5f b9 81 8d 52 38 f2 fd 68 b9 b3 17 4a b9
       -0.00021346634 5.0199687e-05 -0.00022219846 -0.0001927305
0001b0 cd fa 12 38 53 18 37 b9 43 f0 66 b9 6c 5c 22 38
       3.504269e-05 -0.00017461301 -0.00022024014 3.8709884e-05
0001c0 e8 e7 80 b9 12 9f 54 38 3e 58 1f 38 39 78 1f 38
       -0.00024586846 5.0692885e-05 3.7990736e-05 3.802052e-05
0001d0 0b 91 89 b9 a4 b4 2a b8 79 12 dd 37 3d 10 44 38
       -0.00026238742 -4.0699393e-05 2.6353855e-05 4.6745165e-05
0001e0 37 fc 15 38 17 62 4d 37 69 6b 82 38 a6 8f 83 b9
       3.575926e-05 1.22417905e-05 6.21889e-05 -0.00025093294
0001f0 10 20 20 b9 66 42 9e b6 af 90 63 38 b0 ff 96 39
       -0.00015270733 -4.7164967e-06 5.4255765e-05 0.00028800732
000200 79 63 08 b8 a9 de cf b9 6a b5 cc b9 2c a7 58 38
       -3.2517568e-05 -0.0003964801 -0.00039045076 5.1654104e-05
000210 4d 6e e1 37 f6 b7 56 38 ba aa f8 b8 38 9a 59 b9
       2.6873453e-05 5.1192903e-05 -0.00011857362 -0.00020752184
000220 3b b7 5c b8 2a 91 92 b9 cd e5 8c b9 89 f1 8c b9
       -5.2622734e-05 -0.00027955446 -0.00026874096 -0.0002688284
000230 57 d8 11 38 2b 21 1d 38 cc 67 8c b9 8f 66 81 b9
       3.4772176e-05 3.7462607e-05 -0.00026780216 -0.0002468121
000240 38 fd 6c b9 bb 26 83 b9 ed 60 49 b9 84 05 b9 b8
       -0.00022601045 -0.00025015124 -0.00019204961 -8.822515e-05
000250 b6 3b 03 38 45 3b d6 b8 56 bd e4 b6 ba b8 df 38
       3.1288444e-05 -0.00010215355 -6.816971e-06 0.000106678766
000260 2f cb f5 39 a8 e2 16 3a 03 b3 3e 3a 6c db a0 3c
       0.00046881425 0.00057558203 0.00072745996 0.019635879
000270 d1 24 10 3a 3e 9a 46 39 8b b3 92 b7 e7 38 3c b9
       0.000549865 0.00018940211 -1.7488162e-05 -0.00017950275
000280 9c b5 d0 37 93 c9 ca b8 b0 99 18 38 2f 2e 83 b9
       2.48801e-05 -9.669657e-05 3.6382757e-05 -0.00025020677
000290 04 9a 9d b9 29 ff 41 b9 dc 84 40 38 a6 f4 19 38
       -0.00030060124 -0.00018500969 4.5900102e-05 3.670589e-05
0002a0 d7 dd 11 38 59 ad 55 38 f9 a6 87 38 91 3c 1a 38
       3.47773e-05 5.09446e-05 6.468403e-05 3.6772868e-05
0002b0 85 0d b9 b7 21 17 27 38 05 e1 08 38 e7 cc b8 b8
       -2.2060014e-05 3.9837443e-05 3.2634493e-05 -8.81197e-05
0002c0 fd 7c 1b 3b d9 31 1d 3b 0a 69 ac 3a 3d ce ed 3a
       0.0023725622 0.002398601 0.0013153863 0.0018143129
0002d0 a1 90 00 3b a9 fb a5 3a fd f3 84 3a 12 9b 66 3a
       0.0019617456 0.0012663502 0.0010143515 0.0008796911
0002e0 5b 68 29 3a 0e b1 6a 3a 96 ab be 3a 88 e5 af 3a
       0.00064623886 0.0008952775 0.0014546986 0.0013419846
0002f0 da 2b 66 b8 68 a6 c4 b8 d2 78 30 38 60 8c 7c b9
       -5.4877113e-05 -9.377004e-05 4.2074193e-05 -0.00024084887
000300 7a 54 17 b8 b6 3d 80 b9 5b f5 69 b9 f8 c2 11 38
       -3.607988e-05 -0.0002446004 -0.00022312014 3.4752273e-05
000310 5c 89 2f 38 98 34 16 38 f7 76 5f 37 b6 07 7f b9
       4.1851177e-05 3.581177e-05 1.3319534e-05 -0.00024321568
000320 5c 89 07 b7 b1 46 41 37 41 ff 7b 35 c2 e8 11 3b
       -8.0786085e-06 1.1520156e-05 9.387623e-07 0.0022263979
000330 71 52 58 3b 6d fe 1c 3c 0e 0c a5 3a 5c 89 a6 3a
       0.0033008123 0.009582144 0.0012592094 0.0012705731
000340 2e e5 eb 39 4b 95 83 39 0e 67 ad 39 17 34 ff 39
       0.00044993445 0.000250975 0.00033073913 0.000486762
000350 5f 6a 72 3a 32 dd e7 3a 87 21 35 3b e7 93 3f 3b
       0.0009247418 0.0017689823 0.0027638392 0.0029232444
000360 25 6b e1 3a 51 ec 13 b7 68 b7 30 b9 80 f4 fe b7
       0.0017198069 -8.8169045e-06 -0.00016852992 -3.0393014e-05
000370 22 a0 50 b9 9e 34 51 37 64 c9 2e b9 89 a3 7f b9
       -0.0001989608 1.2469622e-05 -0.00016668957 -0.00024379617
000380 b3 74 16 38 9f ae 03 38 bb 05 85 b9 25 55 39 b9
       3.587147e-05 3.1395462e-05 -0.00025372006 -0.00017674694
000390 78 62 5a b8 d1 96 47 b7 a5 2f 8a 39 73 ee c8 3a
       -5.2066956e-05 -1.1896439e-05 0.0002635691 0.0015329852
0003a0 fd 60 fe 3a af 5a 4e 3a ba fd 4b 3a cd da df 3c
       0.0019407567 0.0007871789 0.00077816437 0.027326012
0003b0 89 c9 5b 3d 7e 8e 24 3d 05 db 8d 3d c4 12 6e b6
       0.053658996 0.040174954 0.0692654 -3.5475687e-06
0003c0 07 54 2e 39 b2 cb 17 3b 38 6e eb 3a c0 6d 28 3b
       0.00016625236 0.0023162183 0.0017961925 0.0025700182
0003d0 93 ed 11 3b 91 01 74 39 72 70 fb b8 27 03 15 36
       0.002226685 0.00023270237 -0.00011989557 2.2204565e-06
0003e0 5a f7 58 b9 5a 2c bb b8 b1 61 4a 38 09 ad 8e b9
       -0.00020691511 -8.925116e-05 4.8251535e-05 -0.00027213272
0003f0 3e d3 80 b9 9c c4 96 b9 22 c7 70 37 e7 6d 8e 37
       -0.0002457145 -0.00028756715 1.4351479e-05 1.6978896e-05

layers.2.bias f4 [100]
000000 32 bc 09 3e 41 2d f5 be a9 ab 61 bf c4 91 17 c0
       0.13450697 -0.47886088 -0.8815256 -2.3682718
000010 5a 2a cb bf 19 18 9a bf 29 22 89 bf c8 b3 d6 be
       -1.58723 -1.2038604 -1.071355 -0.41934037
000020 90 6b 24 c0 50 3f 1e c0 5e 06 7b bf 82 fd 80 3e
       -2.569065 -2.4726143 -0.9805659 0.2519341
000030 d8 b3 00 be 7b 92 3d c0 ad 5f 2d c0 fa 8d 1e be
       -0.12568605 -2.9620655 -2.7089646 -0.15483847
000040 db cd 0e c0 f1 ef 0b c0 bc 19 fe bf 82 48 97 bf
       -2.2313144 -2.1865199 -1.9851604 -1.1819003
000050 c7 51 ca bf 33 c1 54 bf a3 bc 99 bf 44 3a d6 3e
       -1.5806206 -0.831073 -1.2010692 0.41841328
000060 8b 42 01 c0 d7 c1 e6 3d 61 85 f1 3b ff 80 ae be
       -2.0196865 0.11267441 0.0073706363 -0.3408279
000070 f1 3e 19 bf bd af 20 be a0 7f c2 3e a7 01 ce bf
       -0.59861666 -0.15692039 0.37987995 -1.6094254
000080 a9 af 58 3e 47 af 4a bf 9c 93 7d 3f 1c ac 13 c0
       0.21160759 -0.791737 0.9905336 -2.3073797
000090 80 b5 67 bf 22 7f eb bf 8a 9e bb bf c0 4c 19 c0
       -0.9051132 -1.8398173 -1.4657757 -2.3953094
0000a0 c7 57 0f c0 e3 79 92 be 81 9d 3f bf 81 e4 a7 bf
       -2.2397325 -0.28608617 -0.74849707 -1.3116609
0000b0 fc 91 19 bf ac 26 10 c0 80 9a fd bd 39 1f f1 bf
       -0.5998838 -2.2523603 -0.12382984 -1.8837653
0000c0 35 11 20 c0 45 95 21 bf 8d 5e 29 bf ba 09 db bf
       -2.5010502 -0.6311839 -0.661599 -1.7112343
0000d0 07 7a 01 40 30 05 e0 bf 94 6a 84 be 1c cf 23 c0
       2.023073 -1.7501583 -0.25862563 -2.559516
0000e0 62 fc f6 3d 26 31 17 3f 76 e9 b2 3e ad 59 db bf
       0.12059857 0.5905937 0.34943742 -1.7136742
0000f0 06 14 45 3f 2c d1 0d be 26 a2 1f c0 56 38 04 c0
       0.7698368 -0.13849324 -2.4942718 -2.0659385
000100 3d d5 7e bf 10 63 17 c0 0e c6 96 bf 52 82 10 c0
       -0.99544126 -2.3654213 -1.1779191 -2.2579541
000110 3c 0d 2e c0 ca 48 f1 3e 99 db 0c c0 95 ec 9a bf
       -2.7195578 0.47125846 -2.2009032 -1.2103449
000120 4a ff 1d c0 da 04 da be 0b 28 a2 bf 96 b5 1a be
       -2.4687066 -0.42581826 -1.266847 -0.15108332
000130 bb 8c 6c bf 7d 6d e4 bf 51 a1 1b 3f b2 b1 fa be
       -0.9240224 -1.7845913 0.60793024 -0.48963696
000140 64 0c 90 be e2 a8 db bf a9 9a 39 c0 e3 1c c7 bf
       -0.28134453 -1.7160914 -2.9000647 -1.555569
000150 42 3a b8 bf f3 7e c4 bf 68 10 99 be 47 0c eb bf
       -1.4392779 -1.5351242 -0.2989533 -1.8363122
000160 fa 9f b1 bf 12 16 35 c0 2d ae 85 3e 97 c4 46 be
       -1.3876946 -2.829472 0.26109448 -0.1941093
000170 36 de e2 bf db 80 cc 3e a9 b7 51 bf 85 d5 18 c0
       -1.7724063 0.3994206 -0.8192087 -2.3880322
000180 7b a9 2d be cf 88 85 bc f2 73 42 bf b4 1b dd bf
       -0.16959183 -0.016300587 -0.7595817 -1.7274079

layers.4.weight f4 [100, 100]
000000 b2 0e a3 b9 af ce 80 bc d4 cb cb b9 8a 20 b4 38
       -0.00031100732 -0.015723554 -0.0003887104 8.58913e-05
000010 11 a3 cc bd 78 a5 2f 38 48 41 04 3a d5 2a 10 3b
       -0.0999204 4.1877356e-05 0.0005045128 0.0021998186
000020 6e f0 54 ba ce 5e 8b 39 10 1b 2b 38 69 3e a6 bf
       -0.0008122985 0.0002658278 4.079478e-05 -1.2987796
000030 eb 29 80 bc cf 69 ce b7 4e 0e 59 3b 14 10 0f bd
       -0.015644988 -2.4606385e-05 0.0033120099 -0.034927443
000040 44 da a8 39 b7 90 07 3a 71 d8 20 bb 4e d9 70 39
       0.00032206078 0.00051714055 -0.0024543072 0.00022969136
000050 58 bf ca 39 a7 51 d0 39 f7 51 f6 39 a3 2e b7 3a
       0.00038671005 0.00039733687 0.00046981845 0.0013975691
000060 9e bf b2 ba 67 f9 c6 3a 37 3f 84 ba 89 cb cb b9
       -0.0013637429 0.0015180529 -0.001008964 -0.00038870823
000070 40 dc 73 b7 67 b5 34 3c 69 0a a4 38 12 5a bd 39
       -1.453521e-05 0.011029578 7.8220684e-05 0.00036115997
000080 70 6b 16 ba 6d 44 90 bf a9 f8 f4 b9 3d c7 b3 b8
       -0.00057380553 -1.1270882 -0.00046724573 -8.572496e-05
000090 1b e4 47 be c0 14 56 b9 e1 00 6d b7 ff 75 e1 38
       -0.19520609 -0.0002041636 -1.4126505e-05 0.000107508145
0000a0 ea 8d 4e be 09 25 14 ba f0 f9 f4 b7 11 2d 96 3a
       -0.20171323 -0.00056512706 -2.9203453e-05 0.0011457523
0000b0 4a eb 8a be 41 c8 57 38 85 6f ae 3d 01 98 82 b9
       -0.27132636 5.1446495e-05 0.085173644 -0.00024908784
0000c0 78 65 01 3a 8d 25 0e 3a 37 bc 25 39 9a fb ae ba
       0.00049360795 0.00054224656 0.00015805742 -0.001335013
0000d0 8c 47 88 3a d0 b9 69 b9 20 68 cc bf a0 b4 92 bd
       0.0010397299 -0.00022289832 -1.5969276 -0.07163358
0000e0 52 ec 9c ba d9 ea 61 3a e0 76 ed 37 cf b9 15 b9
       -0.0011972284 0.0008618064 2.8307957e-05 -0.00014278966
0000f0 7a 1b 62 bf cd 78 ac 3d 26 60 91 b8 67 8a a7 3a
       -0.88323176 0.084214784 -6.932048e-05 0.0012782336
000100 15 1f 36 bf ab f9 a1 bf 2c 36 7f 38 b7 4c 96 b9
       -0.7114118 -1.2654318 6.084719e-05 -0.00028667387
000110 f7 d0 38 3f 3e 88 15 3b e8 83 7a 38 09 72 22 be
       0.72193855 0.0022816802 5.9727492e-05 -0.15863813
000120 5b ff b1 3c 64 44 02 c0 a6 b1 4a b9 46 ea eb bc
       0.021728208 -2.0354242 -0.000193304 -0.028798234
000130 fe 0e 19 3a ea a7 46 be a7 45 6c 38 8f 66 d6 39
       0.0005838721 -0.19399992 5.6331653e-05 0.00040893673
000140 75 8d a8 b9 51 86 95 ba 8e 2f e4 3a d2 a7 29 b8
       -0.0003214885 -0.0011407827 0.0017409192 -4.0449035e-05
000150 82 da 11 3a f2 c8 8c 37 1b 0a 1f b9 db 6a 32 bb
       0.0005563871 1.6782873e-05 -0.00015167186 -0.0027224335
000160 c0 0a 19 3a 4c 2f 2b 39 bd 15 19 ba 1a 5e 90 bf
       0.00058380887 0.0001632545 -0.0005839726 -1.1278718
000170 12 ef 57 39 b0 00 16 ba 49 49 d8 3c 09 f8 16 39
       0.00020593058 -0.00057221483 0.026402133 0.00014397515
000180 9b ee 9d bd 31 bb 8e bf ce 95 48 3a 6f 4a 35 ba
       -0.07711526 -1.1150876 0.0007651717 -0.00069156935
000190 84 ec 16 bc 88 f3 83 bb 54 4d 01 bd 8f 26 c7 be
       -0.009211663 -0.004026834 -0.031567886 -0.38896605
0001a0 ce c3 9b be 11 1b a2 bb c3 d2 45 bb 65 8f e0 ba
       -0.30422825 -0.004947074 -0.0030185438 -0.0017132579
0001b0 fb 8d 44 bc 9f e3 03 bc 50 29 dc bb b7 c8 14 bf
       -0.011996741 -0.008049875 -0.006718792 -0.58118767
0001c0 7b 95 a8 bc f7 60 93 bd 01 8c ee bd 64 58 57 bd
       -0.02057909 -0.07196229 -0.116477974 -0.05257453
0001d0 e6 42 27 be 3a c0 9d bb 82 0d c2 bb e0 49 f5 be
       -0.16334113 -0.004814175 -0.0059220204 -0.47907925
0001e0 91 9b 86 bc 9b 77 3f bc 22 d5 77 bc 8c 77 65 bc
       -0.016431602 -0.011686231 -0.015126498 -0.014005553
0001f0 5a 52 08 b9 66 7d e8 3c a7 2a 14 bf f1 7b 1d bf
       -0.00013000649 0.028380107 -0.5787758 -0.61517245
000200 bc 32 78 bc 03 cd ba bd d1 1e 88 bc 44 11 76 bc
       -0.015148815 -0.09121134 -0.016616257 -0.015018765
000210 e6 bb 8b bb b2 5e 8e be dc 88 ec bd cb 48 2a bc
       -0.0042643426 -0.27806622 -0.11549541 -0.010393332
000220 ae 8f 9c be fb 75 cf bb ae fd 7f be f1 5c 38 bd
       -0.3057837 -0.006331203 -0.24999115 -0.04501051
000230 90 34 4f be 9e 50 92 bc 54 86 98 bd b0 6c 8c bb
       -0.20234895 -0.017860707 -0.07447496 -0.0042854175
000240 80 7d ff bd e4 39 6e bb 3c 7a cd b8 3d c5 c7 bc
       -0.12475109 -0.0036350423 -9.79793e-05 -0.024386043
000250 5c 47 c6 bc 32 17 43 be 1e 3d 55 bc b1 da b6 bc
       -0.024203949 -0.19051817 -0.01301506 -0.022321077
000260 b7 a5 29 be 15 13 56 bc b5 6e 46 be fd d7 28 be
       -0.16567121 -0.013066073 -0.19378169 -0.16488643
000270 2e 0e c6 be bf ec a6 bd 76 73 67 be 54 b9 52 be
       -0.38682693 -0.081506245 -0.22602639 -0.2057851
000280 bb d4 4f bd bf f1 88 3d 6d 74 cb bc eb bd 3b bb
       -0.050739985 0.066867344 -0.02483579 -0.0028647135
000290 c1 9c 72 bd 5e db b8 bd f2 df bb be 8c 61 ef ba
       -0.059231523 -0.09026216 -0.36694294 -0.0018263324
0002a0 bf dd 85 bc db ea 47 bc d5 33 64 be 63 43 cf bd
       -0.016341088 -0.01220199 -0.22285397 -0.10120275
0002b0 25 35 10 ba d3 cd 0b bf 7a ed 33 bd 27 5f 8a bb
       -0.0005501083 -0.5461094 -0.043927647 -0.004222769
0002c0 17 0e 0c bc 99 74 94 ba 42 11 58 bc af 29 39 be
       -0.008548281 -0.0011326253 -0.013187708 -0.18082307
0002d0 2b 90 ef be 07 c5 7d bc 67 6e 45 be c2 70 81 bc
       -0.4678968 -0.0154888695 -0.19280396 -0.015800837
0002e0 8b 08 5c bc 1c 0c 80 bb 8b a4 09 bf 90 1a 57 bc
       -0.013429771 -0.0039076935 -0.537667 -0.013128892
0002f0 8b 63 7e bc 1f c5 92 bc 74 57 1c be 1c c1 ef bd
       -0.015526663 -0.01791626 -0.15267736 -0.117067546
000300 37 9f 22 bc 5b 9c fe bc 40 a0 4a bc d8 ac 2c ba
       -0.009925655 -0.031080415 -0.012367308 -0.0006587035
000310 fa 51 c3 3d 50 07 22 bf f3 fd a8 bc 40 29 b8 bd
       0.0953712 -0.6329241 -0.020628905 -0.08992243
000320 e4 09 8f b9 4b 0d 26 39 c5 fa 70 bf 9e 33 0a bb
       -0.00027282455 0.00015835946 -0.94132644 -0.0021087895
000330 d7 bc ad b9 b7 7a 8d 3a 3f 8e 9f 38 4d ea fe ba
       -0.00033137828 0.0010794018 7.608206e-05 -0.0019448489
000340 dd 68 85 b9 4c 99 50 3d 67 19 2b b8 a7 88 82 38
       -0.00025445866 0.050927445 -4.0793235e-05 6.2243365e-05
000350 0b b2 30 3d a9 76 10 3a 09 fd 34 bf 34 ec 24 bd
       0.043138545 0.0005510846 -0.706986 -0.040264323
000360 27 95 dc b7 42 80 5f 3c 1e cf 06 bb 82 d1 cf 39
       -2.6295498e-05 0.013641419 -0.0020570229 0.00039638212
000370 99 08 ee bd d5 2b 87 ba 4e 42 9d 3a f6 28 76 ba
       -0.116227336 -0.0010312746 0.001199791 -0.0009390259
000380 a1 94 1b b7 55 a2 e0 ba bd 04 90 b9 39 44 47 c0
       -9.273325e-06 -0.0017138222 -0.0002746935 -3.113539
000390 03 d0 e1 ba 93 2f 9a bd 86 28 40 3a 51 30 4e ba
       -0.001722813 -0.07528605 0.0007330257 -0.0007865476
0003a0 8f 19 26 3a 3f ac 3c 39 87 49 c4 b9 6d ed 4a 39
       0.0006336206 0.00017993244 -0.00037438815 0.00019352669
0003b0 0f 5e 03 bb 48 6f 27 39 3d 50 f2 b8 ed 3a cd 39
       -0.0020045077 0.00015967817 -0.00011554405 0.0003914455
0003c0 e4 de af 39 31 f4 8b 39 a5 20 15 ba 88 8c 8b ba
       0.00033544668 0.00026694083 -0.00056887633 -0.001064674
0003d0 42 58 90 b8 e0 6a 76 b8 a7 1d 45 3d de 11 c6 ba
       -6.8828944e-05 -5.8750506e-05 0.04812398 -0.0015111526
0003e0 c4 e2 23 ba 29 88 cc bd 9c b4 27 bb ad 0c 0b bb
       -0.0006251747 -0.09986908 -0.002558983 -0.0021217272
0003f0 89 bc 85 b7 63 3a 2b bf 40 f2 b8 39 04 a3 15 bb
       -1.5942629e-05 -0.66885966 0.00035275705 -0.002283276

layers.4.bias f4 [100]
000000 66 c9 9e be e0 e9 65 be 72 82 22 bf d7 3c e9 be
       -0.3101303 -0.22452497 -0.63480294 -0.4555423
000010 71 c8 96 be 0f c1 c0 be c7 51 75 bf c1 6f 3f 3d
       -0.294498 -0.37647292 -0.9582791 0.046737436
000020 a5 ff 0b 3f 8c ed af bd 61 5a 82 bf cd b1 05 bd
       0.5468696 -0.0859023 -1.0183831 -0.032640267
000030 b1 70 a1 3e d0 de 4a 3f 4c f7 43 be 8c e5 8f be
       0.3153129 0.79246235 -0.19137305 -0.28104818
000040 4b dd 0e bf 7b a7 57 bd a0 07 a3 be cd 6e c2 3f
       -0.55806416 -0.052649956 -0.31841755 1.5190064
000050 73 6a af 3f be 46 e0 bc 93 a1 b1 3f 86 2b 41 be
       1.3704361 -0.027377483 1.3877434 -0.18864259
000060 fe 45 d6 3f 70 d4 e3 bd a6 6c 17 bf 30 a7 30 be
       1.674011 -0.111245036 -0.5915016 -0.17251277
000070 48 a1 cd 3e 71 55 c4 3f de 53 bc 3e 4f 45 a1 be
       0.4016211 1.5338575 0.36782736 -0.3149819
000080 5a fe 59 be 65 6e 38 3e fd e0 7b bd 4b d9 39 be
       -0.21288434 0.18010862 -0.061493862 -0.18149297
000090 f2 87 70 bd ac ca 25 be 79 65 84 3f 34 a1 44 be
       -0.058723398 -0.16190594 1.0343467 -0.19202119
0000a0 61 78 55 bf 7d ff 73 bf e4 f5 ae 3f 81 85 b0 be
       -0.8338681 -0.9531172 1.366879 -0.34476855
0000b0 2f 92 cf bc c7 61 8f be d2 4b 26 bf 54 c4 47 be
       -0.02533826 -0.28004286 -0.6495944 -0.19508487
0000c0 64 ab 11 bd 20 91 1c be bf 42 a8 be 0c 9f ad be
       -0.03556384 -0.15289736 -0.32863423 -0.33910406
0000d0 6b d8 14 be d1 a2 6b bd 81 50 79 3f 61 cf b3 bf
       -0.14535682 -0.05752832 0.97388464 -1.4047662
0000e0 c7 11 37 3e 19 e0 d7 bd b4 14 05 3f 8c 77 45 be
       0.17877875 -0.1054079 0.51984715 -0.19283885
0000f0 d9 55 b2 bd 2d 9d 01 bf 48 3c b8 be c8 db a1 bd
       -0.087077804 -0.50630456 -0.3598349 -0.07903248
000100 f4 2b 24 be 89 ed dc 3c cb 25 6c 3f 56 e7 49 3f
       -0.16032392 0.026968734 0.9224517 0.78868616
000110 14 6e 2f be 00 20 5c 3f 3a be 6c 3f 8a 84 04 bf
       -0.17131835 0.8598633 0.9247776 -0.5176474
000120 0f 55 0d 3f d8 36 e1 bc 7c eb da be 7c 6d 13 bf
       0.55207914 -0.027491972 -0.42757785 -0.57588935
000130 fa ea f6 bd da c8 fd b9 04 5c a2 be f5 78 3b bc
       -0.12056537 -0.00048405566 -0.31710827 -0.011442413
000140 1d 28 63 be f3 fd 96 3f cf 0d bd be 6d 60 a4 be
       -0.22183271 1.1796249 -0.36924598 -0.32104817
000150 44 58 65 be 77 48 d0 bd 05 4b c7 be 7a d9 80 3e
       -0.22396952 -0.101700716 -0.38924423 0.2516592
000160 ee 08 eb bd 39 30 d0 be 18 46 e8 bd ca 3e 48 bc
       -0.114763126 -0.4066179 -0.11341494 -0.012222001
000170 c8 78 c9 bd 1d 8c f5 bb 0e 19 ac 3e f8 e5 88 bd
       -0.0983749 -0.0074935094 0.33612865 -0.06684488
000180 a4 46 bd be 01 13 75 3b fd 8e 9c be fc 72 35 be
       -0.36967957 0.003739536 -0.3057784 -0.17719644

layers.6.weight f4 [100, 100]
000000 0f 0a e8 3b 82 5e 89 ba e2 79 b0 3a 32 86 37 3a
       0.007081277 -0.0010480436 0.0013464058 0.00070008927
000010 f1 b4 3b 3c 99 96 70 b9 22 82 7c 3c 3e 62 30 3d
       0.011456714 -0.00022944286 0.015411885 0.04306244
000020 21 24 26 bf 02 7b 23 3d 9e 69 80 3d 8a 2e b1 bc
       -0.6489888 0.03991223 0.06270145 -0.021628637
000030 1f df c2 ba 4c dd c1 ba a4 a3 54 b9 70 8f 1a ba
       -0.0014867521 -0.0014790683 -0.00020278856 -0.00058960076
000040 3a 6a 2f bb 69 65 c7 b8 dd ce a1 3a 0d 45 e8 b7
       -0.0026766197 -9.5079486e-05 0.0012344975 -2.768871e-05
000050 1f f3 b3 39 b5 f4 f4 bb 8e 0b 03 3b 40 32 74 ba
       0.0003432268 -0.0074754604 0.00199959 -0.0009315349
000060 64 63 9d b9 91 51 88 3f ac 50 a1 b8 00 6f 0d 3d
       -0.00030019425 1.0649892 -7.6921046e-05 0.034529686
000070 1f 8b e4 39 9b 6f b1 3a f1 7c ae bd 0d 67 d7 b9
       0.00043591202 0.0013537289 -0.085199244 -0.00041084774
000080 65 c4 98 3d 34 d2 86 38 39 c0 ef 3e 39 fb 81 3c
       0.07459334 6.428771e-05 0.46826342 0.015866863
000090 3b e2 10 39 d1 d1 d2 b9 d3 8e 00 ba 48 ca d6 3c
       0.00013817188 -0.00040210647 -0.0004904095 0.026219502
0000a0 f5 87 b7 b9 11 b6 0f b9 5d cb b3 3a 20 3a 33 b9
       -0.00035005776 -0.00013705368 0.0013717223 -0.00017092424
0000b0 98 49 5c ba 26 6f 0c 39 4e 05 ca bc 0f 7e 09 3a
       -0.00084033003 0.00013392846 -0.024660733 0.00052449194
0000c0 3e c5 8d 3b b5 ae 27 3a e4 13 6b be ee 67 95 3a
       0.0043264916 0.0006396578 -0.22956806 0.0011398771
0000d0 8f c3 99 bb 2b 4a 1c b9 08 a2 96 ba 26 3e 0f ba
       -0.004692502 -0.00014904949 -0.0011492381 -0.0005464278
0000e0 6a 9f f6 ba 9e 95 4f bd 4b f3 09 b9 7b 34 cb 3d
       -0.001881582 -0.050679795 -0.00013155972 0.09922119
0000f0 76 24 4e ba ac df 98 b9 33 dd b2 ba 39 ff 40 36
       -0.00078637095 -0.00029158348 -0.0013646245 2.8758789e-06
000100 6e 3a 31 3d 19 bd 1c ba fe 2b f8 b8 03 24 9f ba
       0.043268614 -0.00059791055 -0.00011833756 -0.001214147
000110 6e 21 6a bb ae ba 71 be b4 91 1b ba 26 a7 9e b9
       -0.0035725492 -0.23606369 -0.0005934492 -0.00030260644
000120 78 c1 86 3a 02 97 72 3b 02 8b f8 ba db 19 18 3a
       0.0010281047 0.0037016277 -0.0018962326 0.00058021926
000130 5e 6a 51 bc 8a 51 d4 bc d2 d8 5f b8 69 f1 65 be
       -0.012781708 -0.025917787 -5.3369273e-05 -0.22455372
000140 7d 71 99 bd 6b aa eb be 47 68 98 b8 2f 08 c2 39
       -0.07492349 -0.46028456 -7.267348e-05 0.0003700866
000150 80 44 d8 bc 5f 53 fd 38 bc 1a c5 38 39 08 21 39
       -0.02639985 0.00012079509 9.398672e-05 0.0001535722
000160 e2 22 5a bb 25 93 83 3b c3 37 89 3c 32 17 ad 39
       -0.0033284952 0.0040153437 0.016750222 0.00033014413
000170 a8 69 3a bb 96 ec 1d 3c 4e b1 ff be 7e aa 90 3f
       -0.0028444324 0.009638926 -0.4993996 1.130203
000180 0f 4a 4f 39 a8 be ed 37 0a ff a8 bb 94 59 8f 39
       0.00019768647 2.8341383e-05 -0.005157356 0.00027341826
000190 97 79 d8 39 eb 06 02 bb af 67 68 bb d3 2c 9f 38
       0.00041289322 -0.001984055 -0.003546219 7.59006e-05
0001a0 1e 1e 75 ba 2e b3 b8 b9 fd 20 c8 be 84 11 7c bb
       -0.0009350496 -0.00035228714 -0.39087668 -0.0038462589
0001b0 42 dd e9 b9 b0 b1 2b bd 0b 42 9e 3a f7 77 8d b7
       -0.00044606073 -0.041917503 0.0012074126 -1.6864373e-05
0001c0 72 f5 a2 3d 68 fe a2 b9 ca b6 08 b9 0b d7 71 39
       0.07956971 -0.00031088595 -0.00013038065 0.00023063661
0001d0 b2 d9 10 3b 84 be 9b b8 39 7e be 3c 98 d9 ef be
       0.0022102413 -7.426462e-05 0.023253547 -0.46845698
0001e0 e1 70 a0 bf 8e 12 4c bf 79 0e ed 38 8c 94 b3 b9
       -1.2534448 -0.7971581 0.000113037364 -0.00034252217
0001f0 77 b8 ef 3d 50 9d 9c 39 b0 86 46 ba 08 0c 08 3d
       0.11705106 0.00029871846 -0.00075731706 0.0332146
000200 cf bc 5d 38 85 3a 9d b9 d8 40 96 bd 0c b3 74 3a
       5.2866348e-05 -0.00029988974 -0.07336587 0.00093345414
000210 10 52 87 bd d9 2a c2 37 f9 dc 3c bb 5f 69 7d bd
       -0.06607449 2.3146555e-05 -0.0028818233 -0.061868068
000220 12 b0 0d 38 ef 31 a4 b8 9c fc 33 bf 78 a5 b6 3d
       3.3780998e-05 -7.82943e-05 -0.70307326 0.089182794
000230 b9 ea 06 3a 48 76 a6 b9 1c f3 5c 39 f4 0e a9 b8
       0.0005146671 -0.00031750114 0.000210714 -8.061333e-05
000240 22 fb 1d ba ff b8 b4 3a f8 c1 08 bf b8 d2 84 b9
       -0.00060264964 0.0013788043 -0.5342097 -0.00025334
000250 cd 8d 37 ba 48 b5 aa b7 53 53 09 be ed 70 56 3a
       -0.0007002026 -2.0349995e-05 -0.13410692 0.00081802794
000260 f1 68 91 bc ea 05 e1 bd 9c 01 4a 39 90 68 5a be
       -0.017750235 -0.10987456 0.00019264821 -0.2132895
000270 b9 34 b7 be 5f 23 21 3b a6 8a f1 3e f1 4f 3f b8
       -0.35782412 0.0024587733 0.47176093 -4.56124e-05
000280 70 7e fe b9 31 99 e6 bc 12 b2 ad be 19 e4 32 bb
       -0.0004854086 -0.02814922 -0.3392492 -0.0027296601
000290 50 05 3a 3d 9d 60 05 3e 0c 7a 3a ba 37 d6 37 be
       0.045415223 0.13025136 -0.00071135233 -0.1795281
0002a0 06 d9 94 bd 9d d7 1b bf 8d c0 bb be 83 e4 2c b9
       -0.072679564 -0.60875875 -0.36670342 -0.00016488325
0002b0 69 6c bf 35 61 6c c5 39 c0 4b 15 b9 6f 84 a1 bb
       1.426216e-06 0.00037655517 -0.00014237966 -0.0049291174
0002c0 a2 14 1a bc 56 e2 9a bb eb e7 01 3a 50 e0 92 bf
       -0.009404333 -0.0047266884 0.0004955518 -1.1474705
0002d0 08 8a a3 bd 38 ec 93 bd 7a 52 c4 39 86 1e cc b9
       -0.07985312 -0.072227895 0.00037445483 -0.00038932654
0002e0 b2 0a 03 bc c1 86 a0 38 77 b4 10 b9 00 4f e6 bc
       -0.007998155 7.6544944e-05 -0.00013800139 -0.028113842
0002f0 f3 f2 38 b9 8b ee 29 3b 9e c2 a3 bd 52 68 0f ba
       -0.00017638113 0.0025929536 -0.07996105 -0.0005470562
000300 92 b4 62 bd eb 0e 61 3b 9f 70 7d 3e 45 b5 d8 39
       -0.055347987 0.0034341167 0.24749993 0.00041333787
000310 d5 9e 9a bc dc d1 11 bd 62 8c 8d be 9b c5 8b 38
       -0.018874565 -0.035600528 -0.27646166 6.6648434e-05
000320 35 0a 40 3f ab 63 24 39 09 6c e7 3a 36 63 dc b9
       0.75015575 0.00015677388 0.0017656098 -0.00042035588
000330 70 54 99 39 42 67 a2 b7 a0 4c 89 3c 1a ea 24 3a
       0.00029245345 -1.9359988e-05 0.01676017 0.00062909874
000340 b2 45 55 be cd 57 44 bd 82 07 bd 39 ec e1 83 b9
       -0.20827368 -0.047935296 0.00036054483 -0.00025154592
000350 50 5e 86 3a 3c 02 02 3a ad 9f 05 39 b4 ae 82 3e
       0.0010251496 0.00049594394 0.00012743352 0.25523913
000360 21 c3 17 3f ec 7b c4 b5 81 dc bb 3b 06 8d e9 b9
       0.5928212 -1.4639204e-06 0.005733073 -0.00044546294
000370 97 66 32 ba 12 b1 bc ba e4 19 01 3e 37 21 b4 3f
       -0.0006805448 -0.0014396033 0.12607533 1.4072636
000380 12 81 da 3e 48 d3 01 3a 5c 11 9e 3b 81 97 92 bd
       0.42676598 0.0004952443 0.0048238467 -0.07157803
000390 b6 9e 4c 3f df 56 29 ba 0b e7 cc ba 41 2e bb 3a
       0.79929674 -0.0006459783 -0.0015632821 0.0014280753
0003a0 65 c4 1e 3d 6e 42 75 3d 84 a0 4b ba c4 da 92 bd
       0.038761515 0.059877805 -0.0007767754 -0.071706325
0003b0 d2 c3 87 b9 f8 2b 81 b4 e9 55 95 ba a4 ba 15 3c
       -0.00025895104 -2.4060114e-07 -0.0011393401 0.009138737
0003c0 ef b9 8a 39 c7 dc f1 39 0e de 68 3e 35 38 8a bf
       0.00026459942 0.00046131594 0.22740957 -1.0798403
0003d0 33 b5 ef 3e 7e 67 4d 37 0c c2 97 b8 1d 18 dc ba
       0.46817932 1.2243048e-05 -7.236385e-05 -0.0016791854
0003e0 e8 1a 6b b8 1e ff c5 ba 62 99 2a 39 ad f1 8a b9
       -5.6053424e-05 -0.0015105938 0.00016269603 -0.00026501474
0003f0 6d 81 5c 3d a8 ca d7 38 7b bc 52 38 4d ea 0b bf
       0.053834368 0.000102897466 5.0243438e-05 -0.5465439

layers.6.bias f4 [100]
000000 67 b1 98 bd f8 16 54 be f3 1b 02 bf 88 96 ce bd
       -0.07455712 -0.20711887 -0.508239 -0.10087305
000010 d8 f8 49 be e1 4d 39 3f 3b b4 3e bb 6e c5 a6 ba
       -0.19723833 0.7238446 -0.0029099125 -0.0012723634
000020 60 56 ad 3f 51 b9 bf bd 9d 49 2f bf e5 1e bd 3e
       1.3541985 -0.09361518 -0.684717 0.36937633
000030 df b2 75 3e b0 37 b7 b9 48 79 8c 3f d1 46 1a bf
       0.23994015 -0.0003494597 1.0974512 -0.6026431
000040 ce 47 5a bd 56 73 62 be 4f 7d c6 bc 11 d5 ad 3f
       -0.053291135 -0.2211431 -0.024229674 1.3580648
000050 1b 81 c8 3e 11 d7 a1 3f ef e5 07 be 75 ec 95 3f
       0.39161 1.2643758 -0.13271306 1.1712786
000060 6b 0e fa b6 b5 6f 2d bb 84 a3 43 be db 4e 0b 3d
       -7.452259e-06 -0.0026464288 -0.19105345 0.03401075
000070 34 da d0 3e 2a fb 86 bd 4d a4 98 3f 28 29 03 be
       0.40791476 -0.065908745 1.1925141 -0.12808669
000080 b5 bf ee 3e 26 53 66 bd 1a a3 77 bb 9e 09 a2 3f
       0.46630636 -0.05623164 -0.0037786425 1.2659185
000090 7d c6 32 3f 5a 20 82 be 31 f5 44 3f f4 d3 c9 3e
       0.6983412 -0.25415307 0.7693663 0.3941952
0000a0 31 25 24 be 23 13 f8 be dd be f1 bd 6f e3 0a 3f
       -0.16029812 -0.484521 -0.118039824 0.54253286
0000b0 68 05 4a be ef 89 4a 3f b6 22 11 bf 3b c4 ad be
       -0.19728625 0.7911672 -0.5669359 -0.33938774
0000c0 51 92 94 bd f6 f3 55 bd e7 ca 94 be dd 34 6a bd
       -0.0725447 -0.052234612 -0.29061052 -0.05717932
0000d0 2e cb 71 be 5b c6 5f bc 46 aa 49 3f 79 09 e4 be
       -0.23612663 -0.0136581315 0.7877544 -0.44538477
0000e0 a0 2e 4a 3f 63 18 c1 be c3 be 65 3f 0b c9 96 3f
       0.78977394 -0.37713918 0.89744204 1.1780103
0000f0 50 f4 35 3e 43 73 b1 bc da 7c b7 3f 7e e0 66 be
       0.17768979 -0.021661406 1.4334977 -0.22546574
000100 18 d7 22 bc 96 9f 6c 3e bb 1b 10 bc f8 89 16 be
       -0.009938978 0.23107752 -0.008795674 -0.14701068
000110 c9 2d 23 be f9 53 d3 bd 84 1d 6c 3f 60 92 a1 3f
       -0.15935434 -0.10318751 0.9223254 1.2622795
000120 ff ab 96 3e 5a 67 4b 3f 03 96 94 bc c1 0b c1 be
       0.29428098 0.79454577 -0.018137937 -0.3770428
000130 c6 e4 a5 3f 08 35 34 be fe 46 3c be f5 09 fb be
       1.2960441 -0.17598355 -0.18386456 -0.49031034
000140 51 72 03 be 3a de 79 be 6f da 90 be d5 c5 08 3d
       -0.12836577 -0.24401179 -0.28291652 0.033391792
000150 a3 99 32 be 31 52 7a bd 6b 5c 4c 3d cd a5 35 bf
       -0.1744142 -0.06111354 0.049892824 -0.70956117
000160 55 b9 3b bc a5 f1 ef 3e 28 06 88 3f 2f 21 0c be
       -0.011457761 0.46864048 1.0626879 -0.13684534
000170 ac 94 c0 be dd 4e 35 3f 77 0c ff be 98 0b e6 bd
       -0.37613428 0.7082346 -0.49814197 -0.1123268
000180 41 9c e2 be 4c f9 f7 3c 87 bc 1b be 24 bc 19 3f
       -0.44259837 0.030270241 -0.15208636 0.60052705

layers.8.weight f4 [10, 100]
000000 f0 17 6e ba c3 c3 8a bf 9c 64 08 b8 3a 68 83 bd
       -0.00090825465 -1.0840992 -3.2518627e-05 -0.06416364
000010 84 5e b2 bf ce 09 c3 38 be 78 99 b9 d9 ef 88 39
       -1.3935094 9.300151e-05 -0.00029272394 0.00026118642
000020 5d 03 a2 39 4f b5 b6 bf 54 1e 87 39 20 76 b5 b9
       0.00030901554 -1.4274081 0.00025771803 -0.0003461102
000030 3e 83 f8 be 15 2c 8e b9 9c e4 14 b9 0b c6 40 b8
       -0.4853763 -0.00027117194 -0.00014199544 -4.596081e-05
000040 01 2c 85 3c 6e a5 5a b9 f1 a0 ce ba a9 c8 25 b7
       0.016256334 -0.00020851727 -0.0015764517 -9.881486e-06
000050 52 d3 45 ba b0 43 33 38 14 53 aa 3c 55 0b d1 38
       -0.0007546443 4.2739965e-05 0.020791568 9.968007e-05
000060 da 0d 9b b6 dd 56 ff ba 3d 3d fc bd 5d 4c d6 b8
       -4.6209725e-06 -0.0019480843 -0.12316368 -0.00010218539
000070 19 c5 0d 39 96 40 60 ba 17 2c c6 38 66 b2 a1 bd
       0.00013520232 -0.0008554546 9.449588e-05 -0.07895355
000080 45 4a 7c 39 62 44 0a c0 92 be 80 b9 93 63 5c 39
       0.0002406026 -2.1604238 -0.00024556048 0.00021017929
000090 af d1 95 bf af 86 6e b8 47 27 83 b7 cc e3 c6 bc
       -1.1704615 -5.6869056e-05 -1.5634707e-05 -0.024278544
0000a0 54 c2 7e bd aa 03 22 38 4f 5c a6 3d a8 b8 0e 3a
       -0.062197044 3.8627222e-05 0.08123075 0.0005444386
0000b0 30 52 ad 39 e8 99 78 b9 25 eb aa ba fb 5b aa b8
       0.00033058366 -0.00023708458 -0.0013040049 -8.1233644e-05
0000c0 21 bf c6 be fa d2 1f 3d f9 f1 a2 bc b5 dc 16 38
       -0.38817695 0.039019562 -0.019890772 3.5968336e-05
0000d0 ce a8 a2 b6 ff c3 de b9 26 71 d7 b8 21 97 a8 b9
       -4.8476277e-06 -0.00042489168 -0.000102730744 -0.00032156057
0000e0 c2 b9 b6 37 16 18 e6 bf 0e 49 dd b9 78 c9 ec b8
       2.1782591e-05 -1.79761 -0.00042206835 -0.000112908834
0000f0 f9 33 d5 b7 4b 78 89 b7 68 91 df bf 85 93 e3 bc
       -2.541578e-05 -1.6387688e-05 -1.746625 -0.027780304
000100 6d bd e2 38 1b fb b1 38 6d ef ae be 27 49 88 3d
       0.00010811803 8.48679e-05 -0.34167042 0.06654578
000110 ed 39 6a 38 fa bd 36 bb d5 02 7e b8 3f a4 4e 39
       5.5843895e-05 -0.002788423 -6.0560957e-05 0.00019706877
000120 67 20 98 b9 fe ef 94 38 9c 1d 05 be c7 b0 d7 38
       -0.0002901584 7.101892e-05 -0.12999576 0.00010284926
000130 5f b9 e7 b7 cf e3 da b7 8f d5 c9 bc af a9 13 bf
       -2.7623666e-05 -2.6093707e-05 -0.024637965 -0.5768079
000140 54 1f 18 b9 d5 c4 ea bd fd 34 35 bb 12 88 ab b8
       -0.0001450752 -0.11463324 -0.0027649992 -8.1792605e-05
000150 50 b5 24 bd 3b 57 89 bf 32 be fe b8 eb 18 92 c0
       -0.040211976 -1.0729746 -0.000121470905 -4.5655417
000160 2f 45 12 3c 7d a2 f5 3e 32 6b 11 36 a5 0a 0a 3d
       0.0089276275 0.4797553 2.166908e-06 0.033701558
000170 9f 87 bf b9 3b 49 22 3f 7a 88 4b ba 8e 29 8a bd
       -0.00036531404 0.6339299 -0.0007764172 -0.06746207
000180 0b 01 05 c0 1b e6 ee b9 c2 6c a6 bd d3 b5 63 39
       -2.0781887 -0.0004556634 -0.08126213 0.00021716142
000190 1d 91 26 bf 0d 7e aa 39 35 81 18 b9 ae 69 86 bd
       -0.65065175 0.00032518842 -0.00014543983 -0.065631256
0001a0 68 1b 70 b9 6e a9 d6 b8 25 1b 07 ba 28 51 b1 b8
       -0.00022898393 -0.00010235874 -0.0005153886 -8.455134e-05
0001b0 d4 14 09 b9 19 52 15 c0 f2 5e b3 be 20 4a ec 3e
       -0.00013073097 -2.3331358 -0.35033375 0.46150303
0001c0 2d b0 f3 b8 b5 86 d8 b9 61 50 99 b9 ae 73 80 ba
       -0.00011619958 -0.00041299095 -0.0002924232 -0.00098001
0001d0 53 28 53 bd 54 1b bb be 18 5d 47 b9 50 e9 d7 38
       -0.051552128 -0.36544287 -0.00019012799 0.00010295457
0001e0 9b 49 4c 3f b2 cd 3c b4 9e ed 39 bc 17 6d 28 b9
       0.79799813 -1.7583696e-07 -0.011348156 -0.00016062368
0001f0 44 be 31 b6 84 c5 d2 37 e5 c3 80 ba e6 5a 9e b8
       -2.6485804e-06 2.5125926e-05 -0.0009824006 -7.550958e-05
000200 f1 9c 64 b8 b3 2d d6 ba 2f 9c 6b b9 d7 9e 94 bb
       -5.45056e-05 -0.0016340524 -0.0002246953 -0.0045355367
000210 46 3b f9 b9 b4 73 be b9 77 e7 e3 38 04 e0 9b b8
       -0.00047537143 -0.0003632583 0.00010867317 -7.432702e-05
000220 64 ce 85 b8 0e 46 50 b9 09 28 28 b9 f5 04 25 3f
       -6.3803775e-05 -0.00019862523 -0.00016036643 0.6446069
000230 c0 12 14 ba b9 d4 b4 b9 1e 6a 49 3c ae ea 8b bf
       -0.0005648546 -0.00034490766 0.012293367 -1.0930994
000240 18 47 82 bf 31 86 ae b8 87 06 8f ba 15 c8 19 bc
       -1.0177946 -8.321962e-05 -0.001091198 -0.009386082
000250 15 ac 10 ba 41 6c 8b bb 86 13 b9 bc 28 28 1d b9
       -0.0005518806 -0.004254848 -0.022592317 -0.00014987646
000260 64 b5 1b bb 54 36 dd be b0 05 bf 36 a2 b6 9b be
       -0.002375924 -0.43205512 5.6929057e-06 -0.30412775
000270 ce 63 26 39 23 57 08 ba 36 60 83 b8 77 5e 5f b9
       0.00015868174 -0.00052009727 -6.2644875e-05 -0.00021302128
000280 01 cb 2d b9 53 6b 38 be 71 2e 88 bf 90 f8 d9 3b
       -0.0001657419 -0.18009691 -1.0639173 0.0066519454
000290 c3 0b 1f b9 be 84 28 39 c8 3f ee 37 84 ff 66 bb
       -0.00015167803 0.00016071179 2.8401511e-05 -0.0035247514
0002a0 23 bf 8a bf 24 a3 30 bd 5a f8 08 b9 40 24 0b 38
       -1.083958 -0.043124333 -0.00013062489 3.3173943e-05
0002b0 a9 65 10 b9 f0 d3 0d 36 06 9f 59 bd 02 28 99 ba
       -0.00013770782 2.1134001e-06 -0.053130172 -0.0011684897
0002c0 65 c6 ed b7 70 4a 09 bb 0e 19 56 ba e0 d5 f6 bf
       -2.8344986e-05 -0.002094891 -0.00081671856 -1.928402
0002d0 ab 1e 3d 3c f0 da d3 ba 3a 34 9e bb 54 ed 92 b9
       0.011542956 -0.0016163271 -0.0048280032 -0.00028024113
0002e0 b1 5c 07 bb 73 99 82 ba 72 79 0d ba 5b 35 2c 3a
       -0.0020654614 -0.0009963944 -0.000539682 0.000656923
0002f0 72 ba 0e bd f3 59 43 b8 d4 e1 27 b9 b6 36 30 3d
       -0.034845777 -4.6575395e-05 -0.00016010489 0.043020926
000300 5a a8 d9 38 3f c5 d4 b7 2e 76 8e ba 5d c8 0c bc
       0.00010378724 -2.536422e-05 -0.001086896 -0.008592692
000310 c2 57 c2 ba 47 4a d1 b8 f2 a0 dc 3c ed 71 7b 37
       -0.0014827179 -9.979732e-05 0.026932213 1.4987291e-05
000320 1a d8 2b b9 8f 6a 1d 38 99 82 9d b6 6f b1 8f bb
       -0.00016388335 3.7530957e-05 -4.694168e-06 -0.0043851654
000330 47 cf 15 bb bf 47 14 b9 14 82 00 ba 5e b7 40 b8
       -0.0022859143 -0.00014141107 -0.00049021957 -4.594714e-05
000340 18 ab 1a 38 ff 66 12 bf ed f8 65 bf c5 87 6f 37
       3.6875805e-05 -0.5718841 -0.89832956 1.4277121e-05
000350 8b 8a 85 b7 fa d3 57 ba c4 c0 c9 b7 29 fc 02 ba
       -1.591935e-05 -0.0008233186 -2.405083e-05 -0.0004996681
000360 16 9e 82 bb 44 3b 1c be 1c 11 43 ba a7 ec 88 38
       -0.0039861305 -0.15256983 -0.0007441209 6.529065e-05
000370 48 4f 6b 38 43 20 70 b9 50 d4 22 bb 29 b1 18 36
       5.6102203e-05 -0.00022900202 -0.0024845786 2.2752886e-06
000380 16 7a f1 b6 5d eb 2f 38 99 84 85 b9 40 72 3a b9
       -7.1965724e-06 4.194245e-05 -0.0002546653 -0.00017780904
000390 f5 32 a7 b6 8f 50 de b8 26 88 c4 38 7d 3c 04 bc
       -4.98292e-06 -0.0001060079 9.371368e-05 -0.008071062
0003a0 23 33 6b b7 d2 59 f3 ba 7e e4 6e 38 a5 1c 0b 38
       -1.4018998e-05 -0.0018566197 5.695642e-05 3.316686e-05
0003b0 ae 3c 90 37 15 00 94 ba 7a 54 03 39 a5 54 96 b8
       1.7194394e-05 -0.0011291528 0.00012524604 -7.168324e-05
0003c0 bb ad 08 b7 e5 de 72 b9 3c ab c9 b7 60 99 80 ba
       -8.1466815e-06 -0.00023161953 -2.4040804e-05 -0.0009811334
0003d0 83 ab 88 39 2e f9 20 3f 95 62 94 be 2e c3 8f b9
       0.00026067728 0.6288022 -0.28981462 -0.00027420506
0003e0 89 e8 f0 37 31 fd 63 3d cb 85 06 3d 2f 2b 9c bf
       2.8718512e-05 0.055661384 0.03284244 -1.2200679
0003f0 ae d7 c3 b5 0f 3b cd b9 3c fd 34 3f d2 10 1b c0
       -1.4591403e-06 -0.0003914465 0.70698905 -2.4229016

layers.8.bias f4 [10]
000000 8f 32 b8 3b 2e 36 e0 bb ff 9d 2f bf 70 2d c9 be
       0.0056212614 -0.006842396 -0.6860046 -0.3929248
000010 5f 38 4e 3f 12 d4 ae 3e a1 f4 26 3f a2 6a 37 3f
       0.80554765 0.34146172 0.65217024 0.71647084
000020 e3 63 f4 be b6 91 16 bf
       -0.47732458 -0.5881609
